…
v MiniGrid-ConfigWorld-v0 --model PPO_1M --save-interval 10 --frames 1000000

Namespace(algo='ppo', env='MiniGrid-ConfigWorld-v0', model='PPO_1M', seed=1, log_interval=1, save_interval=10, procs=16, frames=1000000, epochs=4, batch_size=256, frames_per_proc=None, discount=0.99, lr=0.001, gae_lambda=0.95, entropy_coef=0.01, value_loss_coef=0.5, max_grad_norm=0.5, optim_eps=1e-08, optim_alpha=0.99, clip_eps=0.2, recurrence=1, text=False, mem=False)

Device: cuda

Environments loaded

Training status loaded

Observations preprocessor loaded
Model loaded

ACModel(
  (image_conv): Sequential(
    (0): Conv2d(3, 32, kernel_size=(12, 12), stride=(6, 6))
    (1): ReLU()
    (2): Conv2d(32, 64, kernel_size=(9, 9), stride=(4, 4))
    (3): ReLU()
    (4): Conv2d(64, 128, kernel_size=(3, 3), stride=(2, 2))
    (5): ReLU()
    (6): Conv2d(128, 256, kernel_size=(3, 3), stride=(1, 1))
    (7): ReLU()
  )
  (actor): Sequential(
    (0): Linear(in_features=2304, out_features=512, bias=True)
    (1): ReLU()
    (2): Linear(in_features=512, out_features=64, bias=True)
    (3): ReLU()
    (4): Linear(in_features=64, out_features=7, bias=True)
  )
  (critic): Sequential(
    (0): Linear(in_features=2304, out_features=512, bias=True)
    (1): ReLU()
    (2): Linear(in_features=512, out_features=64, bias=True)
    (3): ReLU()
    (4): Linear(in_features=64, out_features=1, bias=True)
  )
)

Optimizer loaded

U 1 | F 002048 | FPS 0311 | D 6 | Reward:μσmM -0.31 0.46 -1.00 0.00 |  entropy 1.532 | value 0.052 | policy_loss 0.053 | value_loss 0.022 | grad_norm 0.198
U 2 | F 004096 | FPS 0407 | D 11 | Reward:μσmM -0.31 0.46 -1.00 0.00 |  entropy 1.909 | value 0.063 | policy_loss 0.013 | value_loss 0.000 | grad_norm 0.009
U 3 | F 006144 | FPS 0324 | D 17 | Reward:μσmM -0.75 0.43 -1.00 0.00 |  entropy 1.899 | value -0.046 | policy_loss 0.120 | value_loss 0.054 | grad_norm 0.091
…
