…
ti_train.py --algo ppo --env MiniGrid-ConfigWorld-v0 --model 7 --save-interval 10 --frames 80000

Namespace(algo='ppo', env='MiniGrid-ConfigWorld-v0', model='7', seed=1, log_interval=1, save_interval=10, procs=1, frames=80000, epochs=4, batch_size=256, frames_per_proc=128, discount=0.99, lr=0.001, gae_lambda=0.95, entropy_coef=0.01, value_loss_coef=0.5, max_grad_norm=0.5, optim_eps=1e-08, optim_alpha=0.99, clip_eps=0.2, recurrence=1, text=False)

Device: cuda

Environments loaded

Training status loaded

Observations preprocessor loaded
Model loaded

ACModel(
  (image_conv): Sequential(
    (0): Conv2d(3, 32, kernel_size=(12, 12), stride=(6, 6))
    (1): ReLU()
    (2): Conv2d(32, 64, kernel_size=(9, 9), stride=(4, 4))
    (3): ReLU()
    (4): Conv2d(64, 128, kernel_size=(3, 3), stride=(2, 2))
    (5): ReLU()
    (6): Conv2d(128, 256, kernel_size=(3, 3), stride=(1, 1))
    (7): ReLU()
  )
  (actor): Sequential(
    (0): Linear(in_features=2304, out_features=512, bias=True)
    (1): Tanh()
    (2): Linear(in_features=512, out_features=64, bias=True)
    (3): Tanh()
    (4): Linear(in_features=64, out_features=7, bias=True)
  )
  (critic): Sequential(
    (0): Linear(in_features=2304, out_features=512, bias=True)
    (1): Tanh()
    (2): Linear(in_features=512, out_features=64, bias=True)
    (3): Tanh()
    (4): Linear(in_features=64, out_features=1, bias=True)
  )
)

Optimizer loaded

Optimizer loaded

Optimizer loaded

U 1 | F 000128 | FPS 0039 | D 3 | Reward:米考mM -0.00 1.00 -1.00 1.00 | policy_loss ['0.302', 'None', '0.652'] | value_loss ['6.133', 'None', '0.966'] 
U 2 | F 000256 | FPS 0114 | D 4 | Reward:米考mM 2.63 3.06 -1.00 6.48 | policy_loss ['-0.047', 'None', '0.044'] | value_loss ['0.012', 'None', '0.017'] 
…
D:\Code\lamda1_serve\RLABL\scripts\multi_train.py --algo ppo --env MiniGrid-ConfigWorld-v0 --model 7 --save-interval 10 --frames 80000

Namespace(algo='ppo', env='MiniGrid-ConfigWorld-v0', model='7', seed=1, log_interval=1, save_interval=10, procs=1, frames=80000, epochs=4, batch_size=256, frames_per_proc=128, discount=0.99, lr=0.001, gae_lambda=0.95, entropy_coef=0.01, value_loss_coef=0.5, max_grad_norm=0.5, optim_eps=1e-08, optim_alpha=0.99, clip_eps=0.2, recurrence=1, text=False)

Device: cuda

Environments loaded

Training status loaded

Observations preprocessor loaded
Model loaded

[ACModel(
  (image_conv): Sequential(
    (0): Conv2d(3, 32, kernel_size=(12, 12), stride=(6, 6))
    (1): ReLU()
    (2): Conv2d(32, 64, kernel_size=(9, 9), stride=(4, 4))
    (3): ReLU()
    (4): Conv2d(64, 128, kernel_size=(3, 3), stride=(2, 2))
    (5): ReLU()
    (6): Conv2d(128, 256, kernel_size=(3, 3), stride=(1, 1))
    (7): ReLU()
  )
  (actor): Sequential(
    (0): Linear(in_features=2304, out_features=512, bias=True)
    (1): Tanh()
    (2): Linear(in_features=512, out_features=64, bias=True)
    (3): Tanh()
    (4): Linear(in_features=64, out_features=7, bias=True)
  )
  (critic): Sequential(
    (0): Linear(in_features=2304, out_features=512, bias=True)
    (1): Tanh()
    (2): Linear(in_features=512, out_features=64, bias=True)
    (3): Tanh()
    (4): Linear(in_features=64, out_features=1, bias=True)
  )
), ACModel(
  (image_conv): Sequential(
    (0): Conv2d(3, 32, kernel_size=(12, 12), stride=(6, 6))
    (1): ReLU()
    (2): Conv2d(32, 64, kernel_size=(9, 9), stride=(4, 4))
    (3): ReLU()
    (4): Conv2d(64, 128, kernel_size=(3, 3), stride=(2, 2))
    (5): ReLU()
    (6): Conv2d(128, 256, kernel_size=(3, 3), stride=(1, 1))
    (7): ReLU()
  )
  (actor): Sequential(
    (0): Linear(in_features=2304, out_features=512, bias=True)
    (1): Tanh()
    (2): Linear(in_features=512, out_features=64, bias=True)
    (3): Tanh()
    (4): Linear(in_features=64, out_features=7, bias=True)
  )
  (critic): Sequential(
    (0): Linear(in_features=2304, out_features=512, bias=True)
    (1): Tanh()
    (2): Linear(in_features=512, out_features=64, bias=True)
    (3): Tanh()
    (4): Linear(in_features=64, out_features=1, bias=True)
  )
), ACModel(
  (image_conv): Sequential(
    (0): Conv2d(3, 32, kernel_size=(12, 12), stride=(6, 6))
    (1): ReLU()
    (2): Conv2d(32, 64, kernel_size=(9, 9), stride=(4, 4))
    (3): ReLU()
    (4): Conv2d(64, 128, kernel_size=(3, 3), stride=(2, 2))
    (5): ReLU()
    (6): Conv2d(128, 256, kernel_size=(3, 3), stride=(1, 1))
    (7): ReLU()
  )
  (actor): Sequential(
    (0): Linear(in_features=2304, out_features=512, bias=True)
    (1): Tanh()
    (2): Linear(in_features=512, out_features=64, bias=True)
    (3): Tanh()
    (4): Linear(in_features=64, out_features=7, bias=True)
  )
  (critic): Sequential(
    (0): Linear(in_features=2304, out_features=512, bias=True)
    (1): Tanh()
    (2): Linear(in_features=512, out_features=64, bias=True)
    (3): Tanh()
    (4): Linear(in_features=64, out_features=1, bias=True)
  )
)]

Optimizer loaded

Optimizer loaded

Optimizer loaded

U 21 | F 002688 | FPS 0047 | D 2 | Reward:米考mM 0.94 0.00 0.94 0.94 | policy_loss ['-0.481', 'None', '-0.004'] | value_loss ['0.250', 'None', '0.002'] 
U 22 | F 002816 | FPS 0166 | D 3 | Reward:米考mM 0.00 0.00 0.00 0.00 | policy_loss ['None', 'None', 'None'] | value_loss ['None', 'None', 'None'] 
…
