…
Namespace(task_config='task1', discover=0, algo='ppo', env='MiniGrid-ConfigWorld-v0-havekey', model='20240819-seed1', seed=1, log_interval=1, test_interval=10, save_interval=10, procs=1, frames=10000000, AnomalyNN='test_8', epochs=32, batch_size=128, frames_per_proc=256, discount=0.99, lr=0.00025, gae_lambda=0.95, entropy_coef=0.01, value_loss_coef=0.5, max_grad_norm=0.5, optim_eps=1e-08, optim_alpha=0.99, clip_eps=0.2, recurrence=1, text=False, buffer_size=10000, target_update=10)

Device: cuda

Environments loaded

Training status loaded

Observations preprocessor loaded
Model loaded

ACModel(
  (image_conv): Sequential(
    (0): Conv2d(3, 32, kernel_size=(12, 12), stride=(6, 6))
    (1): ReLU()
    (2): Conv2d(32, 64, kernel_size=(9, 9), stride=(4, 4))
    (3): ReLU()
    (4): Conv2d(64, 128, kernel_size=(3, 3), stride=(2, 2))
    (5): ReLU()
    (6): Conv2d(128, 256, kernel_size=(3, 3), stride=(1, 1))
    (7): ReLU()
  )
  (actor): Sequential(
    (0): Linear(in_features=2304, out_features=512, bias=True)
    (1): ReLU()
    (2): Linear(in_features=512, out_features=64, bias=True)
    (3): ReLU()
    (4): Linear(in_features=64, out_features=7, bias=True)
  )
  (critic): Sequential(
    (0): Linear(in_features=2304, out_features=512, bias=True)
    (1): ReLU()
    (2): Linear(in_features=512, out_features=64, bias=True)
    (3): ReLU()
    (4): Linear(in_features=64, out_features=1, bias=True)
  )
)

Optimizer loaded

U 1 | F 000256 | FPS 0042 | D 6 | Reward:μσmM 0.00 0.00 0.00 0.00 | policy_loss ['None', 'None', '0.030'] | value_loss ['None', 'None', '0.000']
U 2 | F 000512 | FPS 0048 | D 11 | Reward:μσmM -0.80 0.40 -1.00 0.00 | policy_loss ['None', 'None', '0.206'] | value_loss ['None', 'None', '0.097']
U 3 | F 000768 | FPS 0051 | D 16 | Reward:μσmM -0.92 0.28 -1.00 0.00 | policy_loss ['None', 'None', '0.277'] | value_loss ['None', 'None', '0.120']
…
Namespace(task_config='task1', discover=1, algo='ppo', env='MiniGrid-ConfigWorld-v0-havekey', model='20240819-seed1', seed=1, log_interval=1, test_interval=10, save_interval=10, procs=1, frames=10000000, AnomalyNN='test_8', epochs=32, batch_size=128, frames_per_proc=256, discount=0.99, lr=0.00025, gae_lambda=0.95, entropy_coef=0.01, value_loss_coef=0.5, max_grad_norm=0.5, optim_eps=1e-08, optim_alpha=0.99, clip_eps=0.2, recurrence=1, text=False, buffer_size=10000, target_update=10)

Device: cuda

Environments loaded

Training status loaded

Observations preprocessor loaded
Model loaded

ACModel(
  (image_conv): Sequential(
    (0): Conv2d(3, 32, kernel_size=(12, 12), stride=(6, 6))
    (1): ReLU()
    (2): Conv2d(32, 64, kernel_size=(9, 9), stride=(4, 4))
    (3): ReLU()
    (4): Conv2d(64, 128, kernel_size=(3, 3), stride=(2, 2))
    (5): ReLU()
    (6): Conv2d(128, 256, kernel_size=(3, 3), stride=(1, 1))
    (7): ReLU()
  )
  (actor): Sequential(
    (0): Linear(in_features=2304, out_features=512, bias=True)
    (1): ReLU()
    (2): Linear(in_features=512, out_features=64, bias=True)
    (3): ReLU()
    (4): Linear(in_features=64, out_features=7, bias=True)
  )
  (critic): Sequential(
    (0): Linear(in_features=2304, out_features=512, bias=True)
    (1): ReLU()
    (2): Linear(in_features=512, out_features=64, bias=True)
    (3): ReLU()
    (4): Linear(in_features=64, out_features=1, bias=True)
  )
)

Optimizer loaded

discover.py --algo ppo --env MiniGrid-ConfigWorld-v0-havekey --lr 0.00025 --AnomalyNN test_8 --model 20240819-seed1 --test-interval 10 --task-config task1 --discover 1

Namespace(task_config='task1', discover=1, algo='ppo', env='MiniGrid-ConfigWorld-v0-havekey', model='20240819-seed1', seed=1, log_interval=1, test_interval=10, save_interval=10, procs=1, frames=10000000, AnomalyNN='test_8', epochs=32, batch_size=128, frames_per_proc=256, discount=0.99, lr=0.00025, gae_lambda=0.95, entropy_coef=0.01, value_loss_coef=0.5, max_grad_norm=0.5, optim_eps=1e-08, optim_alpha=0.99, clip_eps=0.2, recurrence=1, text=False, buffer_size=10000, target_update=10)

Device: cuda

Environments loaded

Training status loaded

Observations preprocessor loaded
Model loaded

ACModel(
  (image_conv): Sequential(
    (0): Conv2d(3, 32, kernel_size=(12, 12), stride=(6, 6))
    (1): ReLU()
    (2): Conv2d(32, 64, kernel_size=(9, 9), stride=(4, 4))
    (3): ReLU()
    (4): Conv2d(64, 128, kernel_size=(3, 3), stride=(2, 2))
    (5): ReLU()
    (6): Conv2d(128, 256, kernel_size=(3, 3), stride=(1, 1))
    (7): ReLU()
  )
  (actor): Sequential(
    (0): Linear(in_features=2304, out_features=512, bias=True)
    (1): ReLU()
    (2): Linear(in_features=512, out_features=64, bias=True)
    (3): ReLU()
    (4): Linear(in_features=64, out_features=7, bias=True)
  )
  (critic): Sequential(
    (0): Linear(in_features=2304, out_features=512, bias=True)
    (1): ReLU()
    (2): Linear(in_features=512, out_features=64, bias=True)
    (3): ReLU()
    (4): Linear(in_features=64, out_features=1, bias=True)
  )
)

Optimizer loaded

discover.py --algo ppo --env MiniGrid-ConfigWorld-v0-havekey --lr 0.00025 --AnomalyNN test_8 --model 20240819-seed1 --test-interval 10 --task-config task1 --discover 1

Namespace(task_config='task1', discover=1, algo='ppo', env='MiniGrid-ConfigWorld-v0-havekey', model='20240819-seed1', seed=1, log_interval=1, test_interval=10, save_interval=10, procs=1, frames=10000000, AnomalyNN='test_8', epochs=32, batch_size=128, frames_per_proc=256, discount=0.99, lr=0.00025, gae_lambda=0.95, entropy_coef=0.01, value_loss_coef=0.5, max_grad_norm=0.5, optim_eps=1e-08, optim_alpha=0.99, clip_eps=0.2, recurrence=1, text=False, buffer_size=10000, target_update=10)

Device: cuda

Environments loaded

Training status loaded

Observations preprocessor loaded
Model loaded

ACModel(
  (image_conv): Sequential(
    (0): Conv2d(3, 32, kernel_size=(12, 12), stride=(6, 6))
    (1): ReLU()
    (2): Conv2d(32, 64, kernel_size=(9, 9), stride=(4, 4))
    (3): ReLU()
    (4): Conv2d(64, 128, kernel_size=(3, 3), stride=(2, 2))
    (5): ReLU()
    (6): Conv2d(128, 256, kernel_size=(3, 3), stride=(1, 1))
    (7): ReLU()
  )
  (actor): Sequential(
    (0): Linear(in_features=2304, out_features=512, bias=True)
    (1): ReLU()
    (2): Linear(in_features=512, out_features=64, bias=True)
    (3): ReLU()
    (4): Linear(in_features=64, out_features=7, bias=True)
  )
  (critic): Sequential(
    (0): Linear(in_features=2304, out_features=512, bias=True)
    (1): ReLU()
    (2): Linear(in_features=512, out_features=64, bias=True)
    (3): ReLU()
    (4): Linear(in_features=64, out_features=1, bias=True)
  )
)

Optimizer loaded

Test 10 turns results: Start from 2, reward per episode: OrderedDict([('mean', 0.28394737243652346), ('std', 0.5682998559655851), ('min', -1.0), ('max', 0.9242105484008789)])
Test 10 turns results: Start from 2, reward per episode: OrderedDict([('mean', 0.6287631630897522), ('std', 0.34355986415417794), ('min', 0.0), ('max', 0.928947389125824)])
…
