…
000 --StateNN multi_23_10M_1_statenn

Namespace(algo='ppo', env='MiniGrid-ConfigWorld-v0-havekey', model='multi_123_10M_1', seed=1, log_interval=1, save_interval=10, procs=1, frames=1000000, StateNN='multi_23_10M_1_statenn', epochs=32, batch_size=128, frames_per_proc=256, discount=0.99, lr=0.0001, gae_lambda=0.95, entropy_coef=0.01, value_loss_coef=0.5, max_grad_norm=0.5, optim_eps=1e-08, optim_alpha=0.99, clip_eps=0.2, recurrence=1, text=False)

Device: cuda

Environments loaded

Training status loaded

Observations preprocessor loaded
Model loaded

ACModel(
  (image_conv): Sequential(
    (0): Conv2d(3, 32, kernel_size=(12, 12), stride=(6, 6))
    (1): ReLU()
    (2): Conv2d(32, 64, kernel_size=(9, 9), stride=(4, 4))
    (3): ReLU()
    (4): Conv2d(64, 128, kernel_size=(3, 3), stride=(2, 2))
    (5): ReLU()
    (6): Conv2d(128, 256, kernel_size=(3, 3), stride=(1, 1))
    (7): ReLU()
  )
  (actor): Sequential(
    (0): Linear(in_features=2304, out_features=512, bias=True)
    (1): ReLU()
    (2): Linear(in_features=512, out_features=64, bias=True)
    (3): ReLU()
    (4): Linear(in_features=64, out_features=7, bias=True)
  )
  (critic): Sequential(
    (0): Linear(in_features=2304, out_features=512, bias=True)
    (1): ReLU()
    (2): Linear(in_features=512, out_features=64, bias=True)
    (3): ReLU()
    (4): Linear(in_features=64, out_features=1, bias=True)
  )
)

Optimizer loaded

Optimizer loaded

Optimizer loaded

U 1 | F 000256 | FPS 0072 | D 3 | Reward:μσmM 1.20 1.25 -1.00 2.00 | policy_loss ['None', '-1.173', '0.413'] | value_loss ['None', '4.242', '0.229']| State_NN_loss 0.329157
U 2 | F 000512 | FPS 0084 | D 6 | Reward:μσmM 1.50 0.87 0.00 2.00 | policy_loss ['None', '-3.026', '0.143'] | value_loss ['None', '5.414', '0.056']| State_NN_loss 0.128007
/home/rlsa/abl/RLABL1/scripts/multi_train.py --algo ppo --env MiniGrid-ConfigWorld-v0-havekey --model multi_123_10M_1 --save-interval 10 --frames 1000000 --StateNN multi_23_10M_1_statenn

Namespace(algo='ppo', env='MiniGrid-ConfigWorld-v0-havekey', model='multi_123_10M_1', seed=1, log_interval=1, save_interval=10, procs=1, frames=1000000, StateNN='multi_23_10M_1_statenn', epochs=32, batch_size=128, frames_per_proc=256, discount=0.99, lr=0.0001, gae_lambda=0.95, entropy_coef=0.01, value_loss_coef=0.5, max_grad_norm=0.5, optim_eps=1e-08, optim_alpha=0.99, clip_eps=0.2, recurrence=1, text=False)

Device: cuda

Environments loaded

Training status loaded

Observations preprocessor loaded
Model loaded

ACModel(
  (image_conv): Sequential(
    (0): Conv2d(3, 32, kernel_size=(12, 12), stride=(6, 6))
    (1): ReLU()
    (2): Conv2d(32, 64, kernel_size=(9, 9), stride=(4, 4))
    (3): ReLU()
    (4): Conv2d(64, 128, kernel_size=(3, 3), stride=(2, 2))
    (5): ReLU()
    (6): Conv2d(128, 256, kernel_size=(3, 3), stride=(1, 1))
    (7): ReLU()
  )
  (actor): Sequential(
    (0): Linear(in_features=2304, out_features=512, bias=True)
    (1): ReLU()
    (2): Linear(in_features=512, out_features=64, bias=True)
    (3): ReLU()
    (4): Linear(in_features=64, out_features=7, bias=True)
  )
  (critic): Sequential(
    (0): Linear(in_features=2304, out_features=512, bias=True)
    (1): ReLU()
    (2): Linear(in_features=512, out_features=64, bias=True)
    (3): ReLU()
    (4): Linear(in_features=64, out_features=1, bias=True)
  )
)

Optimizer loaded

Optimizer loaded

Optimizer loaded

/home/rlsa/abl/RLABL1/scripts/multi_train.py --algo ppo --env MiniGrid-ConfigWorld-v0-havekey --model multi_123_10M_1 --save-interval 10 --frames 1000000 --StateNN multi_23_10M_1_statenn

Namespace(algo='ppo', env='MiniGrid-ConfigWorld-v0-havekey', model='multi_123_10M_1', seed=1, log_interval=1, save_interval=10, procs=1, frames=1000000, StateNN='multi_23_10M_1_statenn', epochs=32, batch_size=128, frames_per_proc=256, discount=0.99, lr=0.0001, gae_lambda=0.95, entropy_coef=0.01, value_loss_coef=0.5, max_grad_norm=0.5, optim_eps=1e-08, optim_alpha=0.99, clip_eps=0.2, recurrence=1, text=False)

Device: cuda

Environments loaded

Training status loaded

Observations preprocessor loaded
Model loaded

ACModel(
  (image_conv): Sequential(
    (0): Conv2d(3, 32, kernel_size=(12, 12), stride=(6, 6))
    (1): ReLU()
    (2): Conv2d(32, 64, kernel_size=(9, 9), stride=(4, 4))
    (3): ReLU()
    (4): Conv2d(64, 128, kernel_size=(3, 3), stride=(2, 2))
    (5): ReLU()
    (6): Conv2d(128, 256, kernel_size=(3, 3), stride=(1, 1))
    (7): ReLU()
  )
  (actor): Sequential(
    (0): Linear(in_features=2304, out_features=512, bias=True)
    (1): ReLU()
    (2): Linear(in_features=512, out_features=64, bias=True)
    (3): ReLU()
    (4): Linear(in_features=64, out_features=7, bias=True)
  )
  (critic): Sequential(
    (0): Linear(in_features=2304, out_features=512, bias=True)
    (1): ReLU()
    (2): Linear(in_features=512, out_features=64, bias=True)
    (3): ReLU()
    (4): Linear(in_features=64, out_features=1, bias=True)
  )
)

Optimizer loaded

Optimizer loaded

Optimizer loaded

U 1 | F 000256 | FPS 0072 | D 3 | Reward:μσmM 1.20 1.25 -1.00 2.00 | policy_loss ['None', '-1.215', '0.414'] | value_loss ['None', '4.122', '0.230']| State_NN_loss 0.329157
U 2 | F 000512 | FPS 0086 | D 6 | Reward:μσmM 1.67 0.75 0.00 2.00 | policy_loss ['None', '-3.320', '0.284'] | value_loss ['None', '6.649', '0.092']| State_NN_loss 0.192437
…
/home/rlsa/abl/RLABL1/scripts/multi_train.py --algo ppo --env MiniGrid-ConfigWorld-v0-havekey --model multi_123_10M_1 --save-interval 10 --frames 1000000 --StateNN multi_23_10M_1_statenn

Namespace(algo='ppo', env='MiniGrid-ConfigWorld-v0-havekey', model='multi_123_10M_1', seed=1, log_interval=1, save_interval=10, procs=1, frames=1000000, StateNN='multi_23_10M_1_statenn', epochs=32, batch_size=128, frames_per_proc=256, discount=0.99, lr=0.0001, gae_lambda=0.95, entropy_coef=0.01, value_loss_coef=0.5, max_grad_norm=0.5, optim_eps=1e-08, optim_alpha=0.99, clip_eps=0.2, recurrence=1, text=False)

Device: cuda

Environments loaded

Training status loaded

Observations preprocessor loaded
Model loaded

ACModel(
  (image_conv): Sequential(
    (0): Conv2d(3, 32, kernel_size=(12, 12), stride=(6, 6))
    (1): ReLU()
    (2): Conv2d(32, 64, kernel_size=(9, 9), stride=(4, 4))
    (3): ReLU()
    (4): Conv2d(64, 128, kernel_size=(3, 3), stride=(2, 2))
    (5): ReLU()
    (6): Conv2d(128, 256, kernel_size=(3, 3), stride=(1, 1))
    (7): ReLU()
  )
  (actor): Sequential(
    (0): Linear(in_features=2304, out_features=512, bias=True)
    (1): ReLU()
    (2): Linear(in_features=512, out_features=64, bias=True)
    (3): ReLU()
    (4): Linear(in_features=64, out_features=7, bias=True)
  )
  (critic): Sequential(
    (0): Linear(in_features=2304, out_features=512, bias=True)
    (1): ReLU()
    (2): Linear(in_features=512, out_features=64, bias=True)
    (3): ReLU()
    (4): Linear(in_features=64, out_features=1, bias=True)
  )
)

Optimizer loaded

Optimizer loaded

Optimizer loaded

/home/rlsa/abl/RLABL1/scripts/multi_train.py --algo ppo --env MiniGrid-ConfigWorld-v0-havekey --model multi_123_10M_1 --save-interval 10 --frames 1000000 --StateNN multi_23_10M_1_statenn

Namespace(algo='ppo', env='MiniGrid-ConfigWorld-v0-havekey', model='multi_123_10M_1', seed=1, log_interval=1, save_interval=10, procs=1, frames=1000000, StateNN='multi_23_10M_1_statenn', epochs=32, batch_size=128, frames_per_proc=256, discount=0.99, lr=0.0001, gae_lambda=0.95, entropy_coef=0.01, value_loss_coef=0.5, max_grad_norm=0.5, optim_eps=1e-08, optim_alpha=0.99, clip_eps=0.2, recurrence=1, text=False)

Device: cuda

Environments loaded

Training status loaded

Observations preprocessor loaded
Model loaded

ACModel(
  (image_conv): Sequential(
    (0): Conv2d(3, 32, kernel_size=(12, 12), stride=(6, 6))
    (1): ReLU()
    (2): Conv2d(32, 64, kernel_size=(9, 9), stride=(4, 4))
    (3): ReLU()
    (4): Conv2d(64, 128, kernel_size=(3, 3), stride=(2, 2))
    (5): ReLU()
    (6): Conv2d(128, 256, kernel_size=(3, 3), stride=(1, 1))
    (7): ReLU()
  )
  (actor): Sequential(
    (0): Linear(in_features=2304, out_features=512, bias=True)
    (1): ReLU()
    (2): Linear(in_features=512, out_features=64, bias=True)
    (3): ReLU()
    (4): Linear(in_features=64, out_features=7, bias=True)
  )
  (critic): Sequential(
    (0): Linear(in_features=2304, out_features=512, bias=True)
    (1): ReLU()
    (2): Linear(in_features=512, out_features=64, bias=True)
    (3): ReLU()
    (4): Linear(in_features=64, out_features=1, bias=True)
  )
)

Optimizer loaded

Optimizer loaded

Optimizer loaded

/home/rlsa/abl/RLABL1/scripts/multi_train.py --algo ppo --env MiniGrid-ConfigWorld-v0-havekey --model multi_123_10M_1 --save-interval 10 --frames 1000000 --StateNN multi_23_10M_1_statenn

Namespace(algo='ppo', env='MiniGrid-ConfigWorld-v0-havekey', model='multi_123_10M_1', seed=1, log_interval=1, save_interval=10, procs=1, frames=1000000, StateNN='multi_23_10M_1_statenn', epochs=32, batch_size=128, frames_per_proc=256, discount=0.99, lr=0.0001, gae_lambda=0.95, entropy_coef=0.01, value_loss_coef=0.5, max_grad_norm=0.5, optim_eps=1e-08, optim_alpha=0.99, clip_eps=0.2, recurrence=1, text=False)

Device: cuda

Environments loaded

Training status loaded

Observations preprocessor loaded
Model loaded

ACModel(
  (image_conv): Sequential(
    (0): Conv2d(3, 32, kernel_size=(12, 12), stride=(6, 6))
    (1): ReLU()
    (2): Conv2d(32, 64, kernel_size=(9, 9), stride=(4, 4))
    (3): ReLU()
    (4): Conv2d(64, 128, kernel_size=(3, 3), stride=(2, 2))
    (5): ReLU()
    (6): Conv2d(128, 256, kernel_size=(3, 3), stride=(1, 1))
    (7): ReLU()
  )
  (actor): Sequential(
    (0): Linear(in_features=2304, out_features=512, bias=True)
    (1): ReLU()
    (2): Linear(in_features=512, out_features=64, bias=True)
    (3): ReLU()
    (4): Linear(in_features=64, out_features=7, bias=True)
  )
  (critic): Sequential(
    (0): Linear(in_features=2304, out_features=512, bias=True)
    (1): ReLU()
    (2): Linear(in_features=512, out_features=64, bias=True)
    (3): ReLU()
    (4): Linear(in_features=64, out_features=1, bias=True)
  )
)

Optimizer loaded

Optimizer loaded

Optimizer loaded

U 11 | F 002816 | FPS 0076 | D 3 | Reward:μσmM 1.00 1.00 0.00 2.00 | policy_loss ['None', 'nan', '-0.050'] | value_loss ['None', 'nan', '0.008']| State_NN_loss 0.051397
U 12 | F 003072 | FPS 0100 | D 5 | Reward:μσmM 0.00 0.00 0.00 0.00 | policy_loss ['None', 'None', '-0.066'] | value_loss ['None', 'None', '0.000']| State_NN_loss 0.000007
…
