…
lgo ppo --env MiniGrid-ConfigWorld-v0 --model 1 --save-interval 10 --frames 80000

Namespace(algo='ppo', env='MiniGrid-ConfigWorld-v0', model='1', seed=1, log_interval=1, save_interval=10, procs=1, frames=80000, epochs=4, batch_size=256, frames_per_proc=None, discount=0.99, lr=0.001, gae_lambda=0.95, entropy_coef=0.01, value_loss_coef=0.5, max_grad_norm=0.5, optim_eps=1e-08, optim_alpha=0.99, clip_eps=0.2, recurrence=1, text=False)

Device: cpu

Environments loaded

Training status loaded

Observations preprocessor loaded
Model loaded

ACModel(
  (image_conv): Sequential(
    (0): Conv2d(3, 32, kernel_size=(12, 12), stride=(6, 6))
    (1): ReLU()
    (2): Conv2d(32, 64, kernel_size=(9, 9), stride=(4, 4))
    (3): ReLU()
    (4): Conv2d(64, 128, kernel_size=(3, 3), stride=(2, 2))
    (5): ReLU()
    (6): Conv2d(128, 256, kernel_size=(3, 3), stride=(1, 1))
    (7): ReLU()
  )
  (actor): Sequential(
    (0): Linear(in_features=2304, out_features=512, bias=True)
    (1): Tanh()
    (2): Linear(in_features=512, out_features=64, bias=True)
    (3): Tanh()
    (4): Linear(in_features=64, out_features=7, bias=True)
  )
  (critic): Sequential(
    (0): Linear(in_features=2304, out_features=512, bias=True)
    (1): Tanh()
    (2): Linear(in_features=512, out_features=64, bias=True)
    (3): Tanh()
    (4): Linear(in_features=64, out_features=1, bias=True)
  )
)

Optimizer loaded

U 1 | F 000128 | FPS 0110 | D 1 | Reward:米考mM 0.00 0.00 0.00 0.00 |  entropy 1.051 | value -3.009 | policy_loss 0.032 | value_loss 9.197 | grad_norm 62.876
U 2 | F 000256 | FPS 0135 | D 2 | Reward:米考mM -1.22 0.00 -1.22 -1.22 |  entropy 0.887 | value -1.316 | policy_loss -0.375 | value_loss 0.327 | grad_norm 4.251
U 3 | F 000384 | FPS 0154 | D 2 | Reward:米考mM -1.14 0.00 -1.14 -1.14 |  entropy 1.092 | value -1.165 | policy_loss -0.228 | value_loss 0.008 | grad_norm 0.669
…
