…
Namespace(task_config='task1', discover=0, algo='ppo', env='MiniGrid-ConfigWorld-v0-havekey', model='20240725-seed1', seed=1, log_interval=1, test_interval=10, save_interval=10, procs=1, frames=10000000, AnomalyNN='test_24', epochs=32, batch_size=128, frames_per_proc=256, discount=0.99, lr=0.0001, gae_lambda=0.95, entropy_coef=0.01, value_loss_coef=0.5, max_grad_norm=0.5, optim_eps=1e-08, optim_alpha=0.99, clip_eps=0.2, recurrence=1, text=False, buffer_size=10000, target_update=10)

Device: cpu

Environments loaded

Training status loaded

Observations preprocessor loaded
Model loaded

ACModel(
  (image_conv): Sequential(
    (0): Conv2d(3, 32, kernel_size=(12, 12), stride=(6, 6))
    (1): ReLU()
    (2): Conv2d(32, 64, kernel_size=(9, 9), stride=(4, 4))
    (3): ReLU()
    (4): Conv2d(64, 128, kernel_size=(3, 3), stride=(2, 2))
    (5): ReLU()
    (6): Conv2d(128, 256, kernel_size=(3, 3), stride=(1, 1))
    (7): ReLU()
  )
  (actor): Sequential(
    (0): Linear(in_features=2304, out_features=512, bias=True)
    (1): ReLU()
    (2): Linear(in_features=512, out_features=64, bias=True)
    (3): ReLU()
    (4): Linear(in_features=64, out_features=7, bias=True)
  )
  (critic): Sequential(
    (0): Linear(in_features=2304, out_features=512, bias=True)
    (1): ReLU()
    (2): Linear(in_features=512, out_features=64, bias=True)
    (3): ReLU()
    (4): Linear(in_features=64, out_features=1, bias=True)
  )
)

Optimizer loaded

discover.py --task-config task1 --discover 0 --algo ppo --env MiniGrid-ConfigWorld-v0-havekey --lr 0.0001 --AnomalyNN test_24 --model 20240725-seed1 --discount 0.99

Namespace(task_config='task1', discover=0, algo='ppo', env='MiniGrid-ConfigWorld-v0-havekey', model='20240725-seed1', seed=1, log_interval=1, test_interval=10, save_interval=10, procs=1, frames=10000000, AnomalyNN='test_24', epochs=32, batch_size=128, frames_per_proc=256, discount=0.99, lr=0.0001, gae_lambda=0.95, entropy_coef=0.01, value_loss_coef=0.5, max_grad_norm=0.5, optim_eps=1e-08, optim_alpha=0.99, clip_eps=0.2, recurrence=1, text=False, buffer_size=10000, target_update=10)

Device: cuda

Environments loaded

Training status loaded

Observations preprocessor loaded
Model loaded

ACModel(
  (image_conv): Sequential(
    (0): Conv2d(3, 32, kernel_size=(12, 12), stride=(6, 6))
    (1): ReLU()
    (2): Conv2d(32, 64, kernel_size=(9, 9), stride=(4, 4))
    (3): ReLU()
    (4): Conv2d(64, 128, kernel_size=(3, 3), stride=(2, 2))
    (5): ReLU()
    (6): Conv2d(128, 256, kernel_size=(3, 3), stride=(1, 1))
    (7): ReLU()
  )
  (actor): Sequential(
    (0): Linear(in_features=2304, out_features=512, bias=True)
    (1): ReLU()
    (2): Linear(in_features=512, out_features=64, bias=True)
    (3): ReLU()
    (4): Linear(in_features=64, out_features=7, bias=True)
  )
  (critic): Sequential(
    (0): Linear(in_features=2304, out_features=512, bias=True)
    (1): ReLU()
    (2): Linear(in_features=512, out_features=64, bias=True)
    (3): ReLU()
    (4): Linear(in_features=64, out_features=1, bias=True)
  )
)

Optimizer loaded

U 1 | F 000256 | FPS 0077 | D 3 | Reward:μσmM -0.50 0.50 -1.00 0.00 | policy_loss ['None', 'None', '0.126'] | value_loss ['None', 'None', '0.052']
U 2 | F 000512 | FPS 0086 | D 6 | Reward:μσmM -0.67 0.47 -1.00 0.00 | policy_loss ['None', 'None', '0.180'] | value_loss ['None', 'None', '0.094']
U 3 | F 000768 | FPS 0124 | D 8 | Reward:μσmM -0.75 0.43 -1.00 0.00 | policy_loss ['None', 'None', '0.136'] | value_loss ['None', 'None', '0.068']
…
Namespace(task_config='task1', discover=1, algo='ppo', env='MiniGrid-ConfigWorld-v0-havekey', model='20240725-seed1', seed=1, log_interval=1, test_interval=10, save_interval=10, procs=1, frames=10000000, AnomalyNN='test_24', epochs=32, batch_size=128, frames_per_proc=256, discount=0.99, lr=0.0001, gae_lambda=0.95, entropy_coef=0.01, value_loss_coef=0.5, max_grad_norm=0.5, optim_eps=1e-08, optim_alpha=0.99, clip_eps=0.2, recurrence=1, text=False, buffer_size=10000, target_update=10)

Device: cuda

Environments loaded

Training status loaded

Observations preprocessor loaded
Model loaded

ACModel(
  (image_conv): Sequential(
    (0): Conv2d(3, 32, kernel_size=(12, 12), stride=(6, 6))
    (1): ReLU()
    (2): Conv2d(32, 64, kernel_size=(9, 9), stride=(4, 4))
    (3): ReLU()
    (4): Conv2d(64, 128, kernel_size=(3, 3), stride=(2, 2))
    (5): ReLU()
    (6): Conv2d(128, 256, kernel_size=(3, 3), stride=(1, 1))
    (7): ReLU()
  )
  (actor): Sequential(
    (0): Linear(in_features=2304, out_features=512, bias=True)
    (1): ReLU()
    (2): Linear(in_features=512, out_features=64, bias=True)
    (3): ReLU()
    (4): Linear(in_features=64, out_features=7, bias=True)
  )
  (critic): Sequential(
    (0): Linear(in_features=2304, out_features=512, bias=True)
    (1): ReLU()
    (2): Linear(in_features=512, out_features=64, bias=True)
    (3): ReLU()
    (4): Linear(in_features=64, out_features=1, bias=True)
  )
)

Optimizer loaded

Test 10 turns results: Start from 2, reward per episode: OrderedDict({'mean': 0.7325000047683716, 'std': 0.5779932253755193, 'min': -1.0, 'max': 0.9549999833106995})
successful test! Start from: 2, reward per episode: OrderedDict({'mean': 0.9351052701473236, 'std': 0.018834531597451472, 'min': 0.8981578946113586, 'max': 0.9597368240356445})
…
