…
Namespace(task_config='task1', discover=0, algo='ppo', env='MiniGrid-ConfigWorld-v0-havekey', model='20240725-seed1', seed=1, log_interval=1, save_interval=10, procs=1, frames=10000000, AnomalyNN='test_19', epochs=32, batch_size=128, frames_per_proc=256, discount=0.99, lr=0.0002, gae_lambda=0.95, entropy_coef=0.01, value_loss_coef=0.5, max_grad_norm=0.5, optim_eps=1e-08, optim_alpha=0.99, clip_eps=0.2, recurrence=1, text=False, buffer_size=10000, target_update=10)

Device: cuda

Environments loaded

Training status loaded

Observations preprocessor loaded
Model loaded

ACModel(
  (image_conv): Sequential(
    (0): Conv2d(3, 32, kernel_size=(12, 12), stride=(6, 6))
    (1): ReLU()
    (2): Conv2d(32, 64, kernel_size=(9, 9), stride=(4, 4))
    (3): ReLU()
    (4): Conv2d(64, 128, kernel_size=(3, 3), stride=(2, 2))
    (5): ReLU()
    (6): Conv2d(128, 256, kernel_size=(3, 3), stride=(1, 1))
    (7): ReLU()
  )
  (actor): Sequential(
    (0): Linear(in_features=2304, out_features=512, bias=True)
    (1): ReLU()
    (2): Linear(in_features=512, out_features=64, bias=True)
    (3): ReLU()
    (4): Linear(in_features=64, out_features=7, bias=True)
  )
  (critic): Sequential(
    (0): Linear(in_features=2304, out_features=512, bias=True)
    (1): ReLU()
    (2): Linear(in_features=512, out_features=64, bias=True)
    (3): ReLU()
    (4): Linear(in_features=64, out_features=1, bias=True)
  )
)

Optimizer loaded

U 1 | F 000256 | FPS 0052 | D 4 | Reward:μσmM -0.50 0.50 -1.00 0.00 | policy_loss ['None', 'None', '0.128'] | value_loss ['None', 'None', '0.065']
U 2 | F 000512 | FPS 0061 | D 9 | Reward:μσmM -0.67 0.47 -1.00 0.00 | policy_loss ['None', 'None', '0.190'] | value_loss ['None', 'None', '0.094']
U 3 | F 000768 | FPS 0065 | D 13 | Reward:μσmM -0.75 0.43 -1.00 0.00 | policy_loss ['None', 'None', '0.133'] | value_loss ['None', 'None', '0.069']
…
Namespace(task_config='task1', discover=1, algo='ppo', env='MiniGrid-ConfigWorld-v0-havekey', model='20240725-seed1', seed=1, log_interval=1, save_interval=10, procs=1, frames=10000000, AnomalyNN='test_19', epochs=32, batch_size=128, frames_per_proc=256, discount=0.99, lr=0.0002, gae_lambda=0.95, entropy_coef=0.01, value_loss_coef=0.5, max_grad_norm=0.5, optim_eps=1e-08, optim_alpha=0.99, clip_eps=0.2, recurrence=1, text=False, buffer_size=10000, target_update=10)

Device: cuda

Environments loaded

Training status loaded

Observations preprocessor loaded
Model loaded

ACModel(
  (image_conv): Sequential(
    (0): Conv2d(3, 32, kernel_size=(12, 12), stride=(6, 6))
    (1): ReLU()
    (2): Conv2d(32, 64, kernel_size=(9, 9), stride=(4, 4))
    (3): ReLU()
    (4): Conv2d(64, 128, kernel_size=(3, 3), stride=(2, 2))
    (5): ReLU()
    (6): Conv2d(128, 256, kernel_size=(3, 3), stride=(1, 1))
    (7): ReLU()
  )
  (actor): Sequential(
    (0): Linear(in_features=2304, out_features=512, bias=True)
    (1): ReLU()
    (2): Linear(in_features=512, out_features=64, bias=True)
    (3): ReLU()
    (4): Linear(in_features=64, out_features=7, bias=True)
  )
  (critic): Sequential(
    (0): Linear(in_features=2304, out_features=512, bias=True)
    (1): ReLU()
    (2): Linear(in_features=512, out_features=64, bias=True)
    (3): ReLU()
    (4): Linear(in_features=64, out_features=1, bias=True)
  )
)

Optimizer loaded

discover.py --task-config task1 --discover 1 --algo ppo --env MiniGrid-ConfigWorld-v0-havekey --lr 0.0002 --AnomalyNN test_19 --model 20240725-seed1 --discount 0.99

Namespace(task_config='task1', discover=1, algo='ppo', env='MiniGrid-ConfigWorld-v0-havekey', model='20240725-seed1', seed=1, log_interval=1, save_interval=10, procs=1, frames=10000000, AnomalyNN='test_19', epochs=32, batch_size=128, frames_per_proc=256, discount=0.99, lr=0.0002, gae_lambda=0.95, entropy_coef=0.01, value_loss_coef=0.5, max_grad_norm=0.5, optim_eps=1e-08, optim_alpha=0.99, clip_eps=0.2, recurrence=1, text=False, buffer_size=10000, target_update=10)

Device: cuda

Environments loaded

Training status loaded

Observations preprocessor loaded
Model loaded

ACModel(
  (image_conv): Sequential(
    (0): Conv2d(3, 32, kernel_size=(12, 12), stride=(6, 6))
    (1): ReLU()
    (2): Conv2d(32, 64, kernel_size=(9, 9), stride=(4, 4))
    (3): ReLU()
    (4): Conv2d(64, 128, kernel_size=(3, 3), stride=(2, 2))
    (5): ReLU()
    (6): Conv2d(128, 256, kernel_size=(3, 3), stride=(1, 1))
    (7): ReLU()
  )
  (actor): Sequential(
    (0): Linear(in_features=2304, out_features=512, bias=True)
    (1): ReLU()
    (2): Linear(in_features=512, out_features=64, bias=True)
    (3): ReLU()
    (4): Linear(in_features=64, out_features=7, bias=True)
  )
  (critic): Sequential(
    (0): Linear(in_features=2304, out_features=512, bias=True)
    (1): ReLU()
    (2): Linear(in_features=512, out_features=64, bias=True)
    (3): ReLU()
    (4): Linear(in_features=64, out_features=1, bias=True)
  )
)

Optimizer loaded

discover.py --task-config task1 --discover 1 --algo ppo --env MiniGrid-ConfigWorld-v0-havekey --lr 0.0002 --AnomalyNN test_19 --model 20240725-seed1 --discount 0.99

Namespace(task_config='task1', discover=1, algo='ppo', env='MiniGrid-ConfigWorld-v0-havekey', model='20240725-seed1', seed=1, log_interval=1, save_interval=10, procs=1, frames=10000000, AnomalyNN='test_19', epochs=32, batch_size=128, frames_per_proc=256, discount=0.99, lr=0.0002, gae_lambda=0.95, entropy_coef=0.01, value_loss_coef=0.5, max_grad_norm=0.5, optim_eps=1e-08, optim_alpha=0.99, clip_eps=0.2, recurrence=1, text=False, buffer_size=10000, target_update=10)

Device: cuda

Environments loaded

Training status loaded

Observations preprocessor loaded
Model loaded

ACModel(
  (image_conv): Sequential(
    (0): Conv2d(3, 32, kernel_size=(12, 12), stride=(6, 6))
    (1): ReLU()
    (2): Conv2d(32, 64, kernel_size=(9, 9), stride=(4, 4))
    (3): ReLU()
    (4): Conv2d(64, 128, kernel_size=(3, 3), stride=(2, 2))
    (5): ReLU()
    (6): Conv2d(128, 256, kernel_size=(3, 3), stride=(1, 1))
    (7): ReLU()
  )
  (actor): Sequential(
    (0): Linear(in_features=2304, out_features=512, bias=True)
    (1): ReLU()
    (2): Linear(in_features=512, out_features=64, bias=True)
    (3): ReLU()
    (4): Linear(in_features=64, out_features=7, bias=True)
  )
  (critic): Sequential(
    (0): Linear(in_features=2304, out_features=512, bias=True)
    (1): ReLU()
    (2): Linear(in_features=512, out_features=64, bias=True)
    (3): ReLU()
    (4): Linear(in_features=64, out_features=1, bias=True)
  )
)

Optimizer loaded

discover.py --task-config task1 --discover 1 --algo ppo --env MiniGrid-ConfigWorld-v0-havekey --lr 0.0002 --AnomalyNN test_19 --model 20240725-seed1 --discount 0.99

Namespace(task_config='task1', discover=1, algo='ppo', env='MiniGrid-ConfigWorld-v0-havekey', model='20240725-seed1', seed=1, log_interval=1, save_interval=10, procs=1, frames=10000000, AnomalyNN='test_19', epochs=32, batch_size=128, frames_per_proc=256, discount=0.99, lr=0.0002, gae_lambda=0.95, entropy_coef=0.01, value_loss_coef=0.5, max_grad_norm=0.5, optim_eps=1e-08, optim_alpha=0.99, clip_eps=0.2, recurrence=1, text=False, buffer_size=10000, target_update=10)

Device: cuda

Environments loaded

Training status loaded

Observations preprocessor loaded
Model loaded

ACModel(
  (image_conv): Sequential(
    (0): Conv2d(3, 32, kernel_size=(12, 12), stride=(6, 6))
    (1): ReLU()
    (2): Conv2d(32, 64, kernel_size=(9, 9), stride=(4, 4))
    (3): ReLU()
    (4): Conv2d(64, 128, kernel_size=(3, 3), stride=(2, 2))
    (5): ReLU()
    (6): Conv2d(128, 256, kernel_size=(3, 3), stride=(1, 1))
    (7): ReLU()
  )
  (actor): Sequential(
    (0): Linear(in_features=2304, out_features=512, bias=True)
    (1): ReLU()
    (2): Linear(in_features=512, out_features=64, bias=True)
    (3): ReLU()
    (4): Linear(in_features=64, out_features=7, bias=True)
  )
  (critic): Sequential(
    (0): Linear(in_features=2304, out_features=512, bias=True)
    (1): ReLU()
    (2): Linear(in_features=512, out_features=64, bias=True)
    (3): ReLU()
    (4): Linear(in_features=64, out_features=1, bias=True)
  )
)

Optimizer loaded

discover.py --task-config task1 --discover 1 --algo ppo --env MiniGrid-ConfigWorld-v0-havekey --lr 0.0002 --AnomalyNN test_19 --model 20240725-seed1 --discount 0.99

Namespace(task_config='task1', discover=1, algo='ppo', env='MiniGrid-ConfigWorld-v0-havekey', model='20240725-seed1', seed=1, log_interval=1, save_interval=10, procs=1, frames=10000000, AnomalyNN='test_19', epochs=32, batch_size=128, frames_per_proc=256, discount=0.99, lr=0.0002, gae_lambda=0.95, entropy_coef=0.01, value_loss_coef=0.5, max_grad_norm=0.5, optim_eps=1e-08, optim_alpha=0.99, clip_eps=0.2, recurrence=1, text=False, buffer_size=10000, target_update=10)

Device: cuda

Environments loaded

Training status loaded

Observations preprocessor loaded
Model loaded

ACModel(
  (image_conv): Sequential(
    (0): Conv2d(3, 32, kernel_size=(12, 12), stride=(6, 6))
    (1): ReLU()
    (2): Conv2d(32, 64, kernel_size=(9, 9), stride=(4, 4))
    (3): ReLU()
    (4): Conv2d(64, 128, kernel_size=(3, 3), stride=(2, 2))
    (5): ReLU()
    (6): Conv2d(128, 256, kernel_size=(3, 3), stride=(1, 1))
    (7): ReLU()
  )
  (actor): Sequential(
    (0): Linear(in_features=2304, out_features=512, bias=True)
    (1): ReLU()
    (2): Linear(in_features=512, out_features=64, bias=True)
    (3): ReLU()
    (4): Linear(in_features=64, out_features=7, bias=True)
  )
  (critic): Sequential(
    (0): Linear(in_features=2304, out_features=512, bias=True)
    (1): ReLU()
    (2): Linear(in_features=512, out_features=64, bias=True)
    (3): ReLU()
    (4): Linear(in_features=64, out_features=1, bias=True)
  )
)

Optimizer loaded

discover.py --task-config task1 --discover 1 --algo ppo --env MiniGrid-ConfigWorld-v0-havekey --lr 0.0002 --AnomalyNN test_19 --model 20240725-seed1 --discount 0.99

Namespace(task_config='task1', discover=1, algo='ppo', env='MiniGrid-ConfigWorld-v0-havekey', model='20240725-seed1', seed=1, log_interval=1, save_interval=10, procs=1, frames=10000000, AnomalyNN='test_19', epochs=32, batch_size=128, frames_per_proc=256, discount=0.99, lr=0.0002, gae_lambda=0.95, entropy_coef=0.01, value_loss_coef=0.5, max_grad_norm=0.5, optim_eps=1e-08, optim_alpha=0.99, clip_eps=0.2, recurrence=1, text=False, buffer_size=10000, target_update=10)

Device: cuda

Environments loaded

Training status loaded

Observations preprocessor loaded
Model loaded

ACModel(
  (image_conv): Sequential(
    (0): Conv2d(3, 32, kernel_size=(12, 12), stride=(6, 6))
    (1): ReLU()
    (2): Conv2d(32, 64, kernel_size=(9, 9), stride=(4, 4))
    (3): ReLU()
    (4): Conv2d(64, 128, kernel_size=(3, 3), stride=(2, 2))
    (5): ReLU()
    (6): Conv2d(128, 256, kernel_size=(3, 3), stride=(1, 1))
    (7): ReLU()
  )
  (actor): Sequential(
    (0): Linear(in_features=2304, out_features=512, bias=True)
    (1): ReLU()
    (2): Linear(in_features=512, out_features=64, bias=True)
    (3): ReLU()
    (4): Linear(in_features=64, out_features=7, bias=True)
  )
  (critic): Sequential(
    (0): Linear(in_features=2304, out_features=512, bias=True)
    (1): ReLU()
    (2): Linear(in_features=512, out_features=64, bias=True)
    (3): ReLU()
    (4): Linear(in_features=64, out_features=1, bias=True)
  )
)

Optimizer loaded

discover.py --task-config task1 --discover 1 --algo ppo --env MiniGrid-ConfigWorld-v0-havekey --lr 0.0002 --AnomalyNN test_19 --model 20240725-seed1 --discount 0.99

Namespace(task_config='task1', discover=1, algo='ppo', env='MiniGrid-ConfigWorld-v0-havekey', model='20240725-seed1', seed=1, log_interval=1, save_interval=10, procs=1, frames=10000000, AnomalyNN='test_19', epochs=32, batch_size=128, frames_per_proc=256, discount=0.99, lr=0.0002, gae_lambda=0.95, entropy_coef=0.01, value_loss_coef=0.5, max_grad_norm=0.5, optim_eps=1e-08, optim_alpha=0.99, clip_eps=0.2, recurrence=1, text=False, buffer_size=10000, target_update=10)

Device: cuda

Environments loaded

Training status loaded

Observations preprocessor loaded
Model loaded

ACModel(
  (image_conv): Sequential(
    (0): Conv2d(3, 32, kernel_size=(12, 12), stride=(6, 6))
    (1): ReLU()
    (2): Conv2d(32, 64, kernel_size=(9, 9), stride=(4, 4))
    (3): ReLU()
    (4): Conv2d(64, 128, kernel_size=(3, 3), stride=(2, 2))
    (5): ReLU()
    (6): Conv2d(128, 256, kernel_size=(3, 3), stride=(1, 1))
    (7): ReLU()
  )
  (actor): Sequential(
    (0): Linear(in_features=2304, out_features=512, bias=True)
    (1): ReLU()
    (2): Linear(in_features=512, out_features=64, bias=True)
    (3): ReLU()
    (4): Linear(in_features=64, out_features=7, bias=True)
  )
  (critic): Sequential(
    (0): Linear(in_features=2304, out_features=512, bias=True)
    (1): ReLU()
    (2): Linear(in_features=512, out_features=64, bias=True)
    (3): ReLU()
    (4): Linear(in_features=64, out_features=1, bias=True)
  )
)

Optimizer loaded

discover.py --task-config task1 --discover 1 --algo ppo --env MiniGrid-ConfigWorld-v0-havekey --lr 0.0002 --AnomalyNN test_19 --model 20240725-seed1 --discount 0.99

Namespace(task_config='task1', discover=1, algo='ppo', env='MiniGrid-ConfigWorld-v0-havekey', model='20240725-seed1', seed=1, log_interval=1, save_interval=10, procs=1, frames=10000000, AnomalyNN='test_19', epochs=32, batch_size=128, frames_per_proc=256, discount=0.99, lr=0.0002, gae_lambda=0.95, entropy_coef=0.01, value_loss_coef=0.5, max_grad_norm=0.5, optim_eps=1e-08, optim_alpha=0.99, clip_eps=0.2, recurrence=1, text=False, buffer_size=10000, target_update=10)

Device: cuda

Environments loaded

Training status loaded

Observations preprocessor loaded
Model loaded

ACModel(
  (image_conv): Sequential(
    (0): Conv2d(3, 32, kernel_size=(12, 12), stride=(6, 6))
    (1): ReLU()
    (2): Conv2d(32, 64, kernel_size=(9, 9), stride=(4, 4))
    (3): ReLU()
    (4): Conv2d(64, 128, kernel_size=(3, 3), stride=(2, 2))
    (5): ReLU()
    (6): Conv2d(128, 256, kernel_size=(3, 3), stride=(1, 1))
    (7): ReLU()
  )
  (actor): Sequential(
    (0): Linear(in_features=2304, out_features=512, bias=True)
    (1): ReLU()
    (2): Linear(in_features=512, out_features=64, bias=True)
    (3): ReLU()
    (4): Linear(in_features=64, out_features=7, bias=True)
  )
  (critic): Sequential(
    (0): Linear(in_features=2304, out_features=512, bias=True)
    (1): ReLU()
    (2): Linear(in_features=512, out_features=64, bias=True)
    (3): ReLU()
    (4): Linear(in_features=64, out_features=1, bias=True)
  )
)

Optimizer loaded

discover.py --task-config task1 --discover 1 --algo ppo --env MiniGrid-ConfigWorld-v0-havekey --lr 0.0002 --AnomalyNN test_19 --model 20240725-seed1 --discount 0.99

Namespace(task_config='task1', discover=1, algo='ppo', env='MiniGrid-ConfigWorld-v0-havekey', model='20240725-seed1', seed=1, log_interval=1, save_interval=10, procs=1, frames=10000000, AnomalyNN='test_19', epochs=32, batch_size=128, frames_per_proc=256, discount=0.99, lr=0.0002, gae_lambda=0.95, entropy_coef=0.01, value_loss_coef=0.5, max_grad_norm=0.5, optim_eps=1e-08, optim_alpha=0.99, clip_eps=0.2, recurrence=1, text=False, buffer_size=10000, target_update=10)

Device: cuda

Environments loaded

Training status loaded

Observations preprocessor loaded
Model loaded

ACModel(
  (image_conv): Sequential(
    (0): Conv2d(3, 32, kernel_size=(12, 12), stride=(6, 6))
    (1): ReLU()
    (2): Conv2d(32, 64, kernel_size=(9, 9), stride=(4, 4))
    (3): ReLU()
    (4): Conv2d(64, 128, kernel_size=(3, 3), stride=(2, 2))
    (5): ReLU()
    (6): Conv2d(128, 256, kernel_size=(3, 3), stride=(1, 1))
    (7): ReLU()
  )
  (actor): Sequential(
    (0): Linear(in_features=2304, out_features=512, bias=True)
    (1): ReLU()
    (2): Linear(in_features=512, out_features=64, bias=True)
    (3): ReLU()
    (4): Linear(in_features=64, out_features=7, bias=True)
  )
  (critic): Sequential(
    (0): Linear(in_features=2304, out_features=512, bias=True)
    (1): ReLU()
    (2): Linear(in_features=512, out_features=64, bias=True)
    (3): ReLU()
    (4): Linear(in_features=64, out_features=1, bias=True)
  )
)

Optimizer loaded

discover.py --task-config task1 --discover 0 --algo ppo --env MiniGrid-ConfigWorld-v0-havekey --lr 0.0002 --AnomalyNN test_19 --model 20240725-seed1 --discount 0.99

Namespace(task_config='task1', discover=0, algo='ppo', env='MiniGrid-ConfigWorld-v0-havekey', model='20240725-seed1', seed=1, log_interval=1, save_interval=10, procs=1, frames=10000000, AnomalyNN='test_19', epochs=32, batch_size=128, frames_per_proc=256, discount=0.99, lr=0.0002, gae_lambda=0.95, entropy_coef=0.01, value_loss_coef=0.5, max_grad_norm=0.5, optim_eps=1e-08, optim_alpha=0.99, clip_eps=0.2, recurrence=1, text=False, buffer_size=10000, target_update=10)

Device: cuda

Environments loaded

Training status loaded

Observations preprocessor loaded
Model loaded

ACModel(
  (image_conv): Sequential(
    (0): Conv2d(3, 32, kernel_size=(12, 12), stride=(6, 6))
    (1): ReLU()
    (2): Conv2d(32, 64, kernel_size=(9, 9), stride=(4, 4))
    (3): ReLU()
    (4): Conv2d(64, 128, kernel_size=(3, 3), stride=(2, 2))
    (5): ReLU()
    (6): Conv2d(128, 256, kernel_size=(3, 3), stride=(1, 1))
    (7): ReLU()
  )
  (actor): Sequential(
    (0): Linear(in_features=2304, out_features=512, bias=True)
    (1): ReLU()
    (2): Linear(in_features=512, out_features=64, bias=True)
    (3): ReLU()
    (4): Linear(in_features=64, out_features=7, bias=True)
  )
  (critic): Sequential(
    (0): Linear(in_features=2304, out_features=512, bias=True)
    (1): ReLU()
    (2): Linear(in_features=512, out_features=64, bias=True)
    (3): ReLU()
    (4): Linear(in_features=64, out_features=1, bias=True)
  )
)

Optimizer loaded

U 51 | F 013056 | FPS 0047 | D 5 | Reward:μσmM 0.30 0.30 0.00 0.61 | policy_loss ['None', 'None', '0.059'] | value_loss ['None', 'None', '0.001']
discover.py --task-config task1 --discover 1 --algo ppo --env MiniGrid-ConfigWorld-v0-havekey --lr 0.0002 --AnomalyNN test_19 --model 20240725-seed1 --discount 0.99

Namespace(task_confi
…
Namespace(task_config='task1', discover=1, algo='ppo', env='MiniGrid-ConfigWorld-v0-havekey', model='20240725-seed1', seed=1, log_interval=1, save_interval=10, procs=1, frames=10000000, AnomalyNN='test_19', epochs=32, batch_size=128, frames_per_proc=256, discount=0.99, lr=0.0002, gae_lambda=0.95, entropy_coef=0.01, value_loss_coef=0.5, max_grad_norm=0.5, optim_eps=1e-08, optim_alpha=0.99, clip_eps=0.2, recurrence=1, text=False, buffer_size=10000, target_update=10)

Device: cuda

Environments loaded

Training status loaded

Observations preprocessor loaded
Model loaded

ACModel(
  (image_conv): Sequential(
    (0): Conv2d(3, 32, kernel_size=(12, 12), stride=(6, 6))
    (1): ReLU()
    (2): Conv2d(32, 64, kernel_size=(9, 9), stride=(4, 4))
    (3): ReLU()
    (4): Conv2d(64, 128, kernel_size=(3, 3), stride=(2, 2))
    (5): ReLU()
    (6): Conv2d(128, 256, kernel_size=(3, 3), stride=(1, 1))
    (7): ReLU()
  )
  (actor): Sequential(
    (0): Linear(in_features=2304, out_features=512, bias=True)
    (1): ReLU()
    (2): Linear(in_features=512, out_features=64, bias=True)
    (3): ReLU()
    (4): Linear(in_features=64, out_features=7, bias=True)
  )
  (critic): Sequential(
    (0): Linear(in_features=2304, out_features=512, bias=True)
    (1): ReLU()
    (2): Linear(in_features=512, out_features=64, bias=True)
    (3): ReLU()
    (4): Linear(in_features=64, out_features=1, bias=True)
  )
)

Optimizer loaded

discover.py --task-config task1 --discover 1 --algo ppo --env MiniGrid-ConfigWorld-v0-havekey --lr 0.0002 --AnomalyNN test_19 --model 20240725-seed1 --discount 0.99

Namespace(task_config='task1', discover=1, algo='ppo', env='MiniGrid-ConfigWorld-v0-havekey', model='20240725-seed1', seed=1, log_interval=1, save_interval=10, procs=1, frames=10000000, AnomalyNN='test_19', epochs=32, batch_size=128, frames_per_proc=256, discount=0.99, lr=0.0002, gae_lambda=0.95, entropy_coef=0.01, value_loss_coef=0.5, max_grad_norm=0.5, optim_eps=1e-08, optim_alpha=0.99, clip_eps=0.2, recurrence=1, text=False, buffer_size=10000, target_update=10)

Device: cuda

Environments loaded

Training status loaded

Observations preprocessor loaded
Model loaded

ACModel(
  (image_conv): Sequential(
    (0): Conv2d(3, 32, kernel_size=(12, 12), stride=(6, 6))
    (1): ReLU()
    (2): Conv2d(32, 64, kernel_size=(9, 9), stride=(4, 4))
    (3): ReLU()
    (4): Conv2d(64, 128, kernel_size=(3, 3), stride=(2, 2))
    (5): ReLU()
    (6): Conv2d(128, 256, kernel_size=(3, 3), stride=(1, 1))
    (7): ReLU()
  )
  (actor): Sequential(
    (0): Linear(in_features=2304, out_features=512, bias=True)
    (1): ReLU()
    (2): Linear(in_features=512, out_features=64, bias=True)
    (3): ReLU()
    (4): Linear(in_features=64, out_features=7, bias=True)
  )
  (critic): Sequential(
    (0): Linear(in_features=2304, out_features=512, bias=True)
    (1): ReLU()
    (2): Linear(in_features=512, out_features=64, bias=True)
    (3): ReLU()
    (4): Linear(in_features=64, out_features=1, bias=True)
  )
)

Optimizer loaded

discover.py --task-config task1 --discover 1 --algo ppo --env MiniGrid-ConfigWorld-v0-havekey --lr 0.0002 --AnomalyNN test_19 --model 20240725-seed1 --discount 0.99

Namespace(task_config='task1', discover=1, algo='ppo', env='MiniGrid-ConfigWorld-v0-havekey', model='20240725-seed1', seed=1, log_interval=1, save_interval=10, procs=1, frames=10000000, AnomalyNN='test_19', epochs=32, batch_size=128, frames_per_proc=256, discount=0.99, lr=0.0002, gae_lambda=0.95, entropy_coef=0.01, value_loss_coef=0.5, max_grad_norm=0.5, optim_eps=1e-08, optim_alpha=0.99, clip_eps=0.2, recurrence=1, text=False, buffer_size=10000, target_update=10)

Device: cuda

Environments loaded

Training status loaded

Observations preprocessor loaded
Model loaded

ACModel(
  (image_conv): Sequential(
    (0): Conv2d(3, 32, kernel_size=(12, 12), stride=(6, 6))
    (1): ReLU()
    (2): Conv2d(32, 64, kernel_size=(9, 9), stride=(4, 4))
    (3): ReLU()
    (4): Conv2d(64, 128, kernel_size=(3, 3), stride=(2, 2))
    (5): ReLU()
    (6): Conv2d(128, 256, kernel_size=(3, 3), stride=(1, 1))
    (7): ReLU()
  )
  (actor): Sequential(
    (0): Linear(in_features=2304, out_features=512, bias=True)
    (1): ReLU()
    (2): Linear(in_features=512, out_features=64, bias=True)
    (3): ReLU()
    (4): Linear(in_features=64, out_features=7, bias=True)
  )
  (critic): Sequential(
    (0): Linear(in_features=2304, out_features=512, bias=True)
    (1): ReLU()
    (2): Linear(in_features=512, out_features=64, bias=True)
    (3): ReLU()
    (4): Linear(in_features=64, out_features=1, bias=True)
  )
)

Optimizer loaded

discover.py --task-config task1 --discover 1 --algo ppo --env MiniGrid-ConfigWorld-v0-havekey --lr 0.0002 --AnomalyNN test_24 --model 20240725-seed1 --discount 0.99

Namespace(task_config='task1', discover=1, algo='ppo', env='MiniGrid-ConfigWorld-v0-havekey', model='20240725-seed1', seed=1, log_interval=1, save_interval=10, procs=1, frames=10000000, AnomalyNN='test_24', epochs=32, batch_size=128, frames_per_proc=256, discount=0.99, lr=0.0002, gae_lambda=0.95, entropy_coef=0.01, value_loss_coef=0.5, max_grad_norm=0.5, optim_eps=1e-08, optim_alpha=0.99, clip_eps=0.2, recurrence=1, text=False, buffer_size=10000, target_update=10)

Device: cuda

Environments loaded

Training status loaded

Observations preprocessor loaded
Model loaded

ACModel(
  (image_conv): Sequential(
    (0): Conv2d(3, 32, kernel_size=(12, 12), stride=(6, 6))
    (1): ReLU()
    (2): Conv2d(32, 64, kernel_size=(9, 9), stride=(4, 4))
    (3): ReLU()
    (4): Conv2d(64, 128, kernel_size=(3, 3), stride=(2, 2))
    (5): ReLU()
    (6): Conv2d(128, 256, kernel_size=(3, 3), stride=(1, 1))
    (7): ReLU()
  )
  (actor): Sequential(
    (0): Linear(in_features=2304, out_features=512, bias=True)
    (1): ReLU()
    (2): Linear(in_features=512, out_features=64, bias=True)
    (3): ReLU()
    (4): Linear(in_features=64, out_features=7, bias=True)
  )
  (critic): Sequential(
    (0): Linear(in_features=2304, out_features=512, bias=True)
    (1): ReLU()
    (2): Linear(in_features=512, out_features=64, bias=True)
    (3): ReLU()
    (4): Linear(in_features=64, out_features=1, bias=True)
  )
)

Optimizer loaded

discover.py --task-config task1 --discover 1 --algo ppo --env MiniGrid-ConfigWorld-v0-havekey --lr 0.0002 --AnomalyNN test_24 --model 20240725-seed1 --discount 0.99

Namespace(task_config='task1', discover=1, algo='ppo', env='MiniGrid-ConfigWorld-v0-havekey', model='20240725-seed1', seed=1, log_interval=1, save_interval=10, procs=1, frames=10000000, AnomalyNN='test_24', epochs=32, batch_size=128, frames_per_proc=256, discount=0.99, lr=0.0002, gae_lambda=0.95, entropy_coef=0.01, value_loss_coef=0.5, max_grad_norm=0.5, optim_eps=1e-08, optim_alpha=0.99, clip_eps=0.2, recurrence=1, text=False, buffer_size=10000, target_update=10)

Device: cuda

Environments loaded

Training status loaded

Observations preprocessor loaded
Model loaded

ACModel(
  (image_conv): Sequential(
    (0): Conv2d(3, 32, kernel_size=(12, 12), stride=(6, 6))
    (1): ReLU()
    (2): Conv2d(32, 64, kernel_size=(9, 9), stride=(4, 4))
    (3): ReLU()
    (4): Conv2d(64, 128, kernel_size=(3, 3), stride=(2, 2))
    (5): ReLU()
    (6): Conv2d(128, 256, kernel_size=(3, 3), stride=(1, 1))
    (7): ReLU()
  )
  (actor): Sequential(
    (0): Linear(in_features=2304, out_features=512, bias=True)
    (1): ReLU()
    (2): Linear(in_features=512, out_features=64, bias=True)
    (3): ReLU()
    (4): Linear(in_features=64, out_features=7, bias=True)
  )
  (critic): Sequential(
    (0): Linear(in_features=2304, out_features=512, bias=True)
    (1): ReLU()
    (2): Linear(in_features=512, out_features=64, bias=True)
    (3): ReLU()
    (4): Linear(in_features=64, out_features=1, bias=True)
  )
)

Optimizer loaded

discover.py --task-config task1 --discover 1 --algo ppo --env MiniGrid-ConfigWorld-v0-havekey --lr 0.0002 --AnomalyNN test_24 --model 20240725-seed1 --discount 0.99

Namespace(task_config='task1', discover=1, algo='ppo', env='MiniGrid-ConfigWorld-v0-havekey', model='20240725-seed1', seed=1, log_interval=1, save_interval=10, procs=1, frames=10000000, AnomalyNN='test_24', epochs=32, batch_size=128, frames_per_proc=256, discount=0.99, lr=0.0002, gae_lambda=0.95, entropy_coef=0.01, value_loss_coef=0.5, max_grad_norm=0.5, optim_eps=1e-08, optim_alpha=0.99, clip_eps=0.2, recurrence=1, text=False, buffer_size=10000, target_update=10)

Device: cuda

Environments loaded

Training status loaded

Observations preprocessor loaded
Model loaded

ACModel(
  (image_conv): Sequential(
    (0): Conv2d(3, 32, kernel_size=(12, 12), stride=(6, 6))
    (1): ReLU()
    (2): Conv2d(32, 64, kernel_size=(9, 9), stride=(4, 4))
    (3): ReLU()
    (4): Conv2d(64, 128, kernel_size=(3, 3), stride=(2, 2))
    (5): ReLU()
    (6): Conv2d(128, 256, kernel_size=(3, 3), stride=(1, 1))
    (7): ReLU()
  )
  (actor): Sequential(
    (0): Linear(in_features=2304, out_features=512, bias=True)
    (1): ReLU()
    (2): Linear(in_features=512, out_features=64, bias=True)
    (3): ReLU()
    (4): Linear(in_features=64, out_features=7, bias=True)
  )
  (critic): Sequential(
    (0): Linear(in_features=2304, out_features=512, bias=True)
    (1): ReLU()
    (2): Linear(in_features=512, out_features=64, bias=True)
    (3): ReLU()
    (4): Linear(in_features=64, out_features=1, bias=True)
  )
)

Optimizer loaded

discover.py --task-config task1 --discover 1 --algo ppo --env MiniGrid-ConfigWorld-v0-havekey --lr 0.0002 --AnomalyNN test_24 --model 20240725-seed1 --discount 0.99

Namespace(task_config='task1', discover=1, algo='ppo', env='MiniGrid-ConfigWorld-v0-havekey', model='20240725-seed1', seed=1, log_interval=1, save_interval=10, procs=1, frames=10000000, AnomalyNN='test_24', epochs=32, batch_size=128, frames_per_proc=256, discount=0.99, lr=0.0002, gae_lambda=0.95, entropy_coef=0.01, value_loss_coef=0.5, max_grad_norm=0.5, optim_eps=1e-08, optim_alpha=0.99, clip_eps=0.2, recurrence=1, text=False, buffer_size=10000, target_update=10)

Device: cuda

Environments loaded

Training status loaded

Observations preprocessor loaded
Model loaded

ACModel(
  (image_conv): Sequential(
    (0): Conv2d(3, 32, kernel_size=(12, 12), stride=(6, 6))
    (1): ReLU()
    (2): Conv2d(32, 64, kernel_size=(9, 9), stride=(4, 4))
    (3): ReLU()
    (4): Conv2d(64, 128, kernel_size=(3, 3), stride=(2, 2))
    (5): ReLU()
    (6): Conv2d(128, 256, kernel_size=(3, 3), stride=(1, 1))
    (7): ReLU()
  )
  (actor): Sequential(
    (0): Linear(in_features=2304, out_features=512, bias=True)
    (1): ReLU()
    (2): Linear(in_features=512, out_features=64, bias=True)
    (3): ReLU()
    (4): Linear(in_features=64, out_features=7, bias=True)
  )
  (critic): Sequential(
    (0): Linear(in_features=2304, out_features=512, bias=True)
    (1): ReLU()
    (2): Linear(in_features=512, out_features=64, bias=True)
    (3): ReLU()
    (4): Linear(in_features=64, out_features=1, bias=True)
  )
)

Optimizer loaded

discover.py --task-config task1 --discover 1 --algo ppo --env MiniGrid-ConfigWorld-v0-havekey --lr 0.0002 --AnomalyNN test_24 --model 20240725-seed1 --discount 0.99

Namespace(task_config='task1', discover=1, algo='ppo', env='MiniGrid-ConfigWorld-v0-havekey', model='20240725-seed1', seed=1, log_interval=1, save_interval=10, procs=1, frames=10000000, AnomalyNN='test_24', epochs=32, batch_size=128, frames_per_proc=256, discount=0.99, lr=0.0002, gae_lambda=0.95, entropy_coef=0.01, value_loss_coef=0.5, max_grad_norm=0.5, optim_eps=1e-08, optim_alpha=0.99, clip_eps=0.2, recurrence=1, text=False, buffer_size=10000, target_update=10)

Device: cuda

Environments loaded

Training status loaded

Observations preprocessor loaded
Model loaded

ACModel(
  (image_conv): Sequential(
    (0): Conv2d(3, 32, kernel_size=(12, 12), stride=(6, 6))
    (1): ReLU()
    (2): Conv2d(32, 64, kernel_size=(9, 9), stride=(4, 4))
    (3): ReLU()
    (4): Conv2d(64, 128, kernel_size=(3, 3), stride=(2, 2))
    (5): ReLU()
    (6): Conv2d(128, 256, kernel_size=(3, 3), stride=(1, 1))
    (7): ReLU()
  )
  (actor): Sequential(
    (0): Linear(in_features=2304, out_features=512, bias=True)
    (1): ReLU()
    (2): Linear(in_features=512, out_features=64, bias=True)
    (3): ReLU()
    (4): Linear(in_features=64, out_features=7, bias=True)
  )
  (critic): Sequential(
    (0): Linear(in_features=2304, out_features=512, bias=True)
    (1): ReLU()
    (2): Linear(in_features=512, out_features=64, bias=True)
    (3): ReLU()
    (4): Linear(in_features=64, out_features=1, bias=True)
  )
)

Optimizer loaded

discover.py --task-config task1 --discover 1 --algo ppo --env MiniGrid-ConfigWorld-v0-havekey --lr 0.0002 --AnomalyNN test_24 --model 20240725-seed1 --discount 0.99

Namespace(task_config='task1', discover=1, algo='ppo', env='MiniGrid-ConfigWorld-v0-havekey', model='20240725-seed1', seed=1, log_interval=1, save_interval=10, procs=1, frames=10000000, AnomalyNN='test_24', epochs=32, batch_size=128, frames_per_proc=256, discount=0.99, lr=0.0002, gae_lambda=0.95, entropy_coef=0.01, value_loss_coef=0.5, max_grad_norm=0.5, optim_eps=1e-08, optim_alpha=0.99, clip_eps=0.2, recurrence=1, text=False, buffer_size=10000, target_update=10)

Device: cuda

Environments loaded

Training status loaded

Observations preprocessor loaded
Model loaded

ACModel(
  (image_conv): Sequential(
    (0): Conv2d(3, 32, kernel_size=(12, 12), stride=(6, 6))
    (1): ReLU()
    (2): Conv2d(32, 64, kernel_size=(9, 9), stride=(4, 4))
    (3): ReLU()
    (4): Conv2d(64, 128, kernel_size=(3, 3), stride=(2, 2))
    (5): ReLU()
    (6): Conv2d(128, 256, kernel_size=(3, 3), stride=(1, 1))
    (7): ReLU()
  )
  (actor): Sequential(
    (0): Linear(in_features=2304, out_features=512, bias=True)
    (1): ReLU()
    (2): Linear(in_features=512, out_features=64, bias=True)
    (3): ReLU()
    (4): Linear(in_features=64, out_features=7, bias=True)
  )
  (critic): Sequential(
    (0): Linear(in_features=2304, out_features=512, bias=True)
    (1): ReLU()
    (2): Linear(in_features=512, out_features=64, bias=True)
    (3): ReLU()
    (4): Linear(in_features=64, out_features=1, bias=True)
  )
)

Optimizer loaded

discover.py --task-config task1 --discover 1 --algo ppo --env MiniGrid-ConfigWorld-v0-havekey --lr 0.0002 --AnomalyNN test_24 --model 20240725-seed1 --discount 0.99

Namespace(task_config='task1', discover=1, algo='ppo', env='MiniGrid-ConfigWorld-v0-havekey', model='20240725-seed1', seed=1, log_interval=1, save_interval=10, procs=1, frames=10000000, AnomalyNN='test_24', epochs=32, batch_size=128, frames_per_proc=256, discount=0.99, lr=0.0002, gae_lambda=0.95, entropy_coef=0.01, value_loss_coef=0.5, max_grad_norm=0.5, optim_eps=1e-08, optim_alpha=0.99, clip_eps=0.2, recurrence=1, text=False, buffer_size=10000, target_update=10)

Device: cuda

Environments loaded

Training status loaded

Observations preprocessor loaded
Model loaded

ACModel(
  (image_conv): Sequential(
    (0): Conv2d(3, 32, kernel_size=(12, 12), stride=(6, 6))
    (1): ReLU()
    (2): Conv2d(32, 64, kernel_size=(9, 9), stride=(4, 4))
    (3): ReLU()
    (4): Conv2d(64, 128, kernel_size=(3, 3), stride=(2, 2))
    (5): ReLU()
    (6): Conv2d(128, 256, kernel_size=(3, 3), stride=(1, 1))
    (7): ReLU()
  )
  (actor): Sequential(
    (0): Linear(in_features=2304, out_features=512, bias=True)
    (1): ReLU()
    (2): Linear(in_features=512, out_features=64, bias=True)
    (3): ReLU()
    (4): Linear(in_features=64, out_features=7, bias=True)
  )
  (critic): Sequential(
    (0): Linear(in_features=2304, out_features=512, bias=True)
    (1): ReLU()
    (2): Linear(in_features=512, out_features=64, bias=True)
    (3): ReLU()
    (4): Linear(in_features=64, out_features=1, bias=True)
  )
)

Optimizer loaded

discover.py --task-config task1 --discover 1 --algo ppo --env MiniGrid-ConfigWorld-v0-havekey --lr 0.0002 --AnomalyNN test_24 --model 20240725-seed1 --discount 0.99

Namespace(task_config='task1', discover=1, algo='ppo', env='MiniGrid-ConfigWorld-v0-havekey', model='20240725-seed1', seed=1, log_interval=1, save_interval=10, procs=1, frames=10000000, AnomalyNN='test_24', epochs=32, batch_size=128, frames_per_proc=256, discount=0.99, lr=0.0002, gae_lambda=0.95, entropy_coef=0.01, value_loss_coef=0.5, max_grad_norm=0.5, optim_eps=1e-08, optim_alpha=0.99, clip_eps=0.2, recurrence=1, text=False, buffer_size=10000, target_update=10)

Device: cuda

Environments loaded

Training status loaded

Observations preprocessor loaded
Model loaded

ACModel(
  (image_conv): Sequential(
    (0): Conv2d(3, 32, kernel_size=(12, 12), stride=(6, 6))
    (1): ReLU()
    (2): Conv2d(32, 64, kernel_size=(9, 9), stride=(4, 4))
    (3): ReLU()
    (4): Conv2d(64, 128, kernel_size=(3, 3), stride=(2, 2))
    (5): ReLU()
    (6): Conv2d(128, 256, kernel_size=(3, 3), stride=(1, 1))
    (7): ReLU()
  )
  (actor): Sequential(
    (0): Linear(in_features=2304, out_features=512, bias=True)
    (1): ReLU()
    (2): Linear(in_features=512, out_features=64, bias=True)
    (3): ReLU()
    (4): Linear(in_features=64, out_features=7, bias=True)
  )
  (critic): Sequential(
    (0): Linear(in_features=2304, out_features=512, bias=True)
    (1): ReLU()
    (2): Linear(in_features=512, out_features=64, bias=True)
    (3): ReLU()
    (4): Linear(in_features=64, out_features=1, bias=True)
  )
)

Optimizer loaded

discover.py --task-config task1 --discover 1 --algo ppo --env MiniGrid-ConfigWorld-v0-havekey --lr 0.0002 --AnomalyNN test_24 --model 20240725-seed1 --discount 0.99

Namespace(task_config='task1', discover=1, algo='ppo', env='MiniGrid-ConfigWorld-v0-havekey', model='20240725-seed1', seed=1, log_interval=1, save_interval=10, procs=1, frames=10000000, AnomalyNN='test_24', epochs=32, batch_size=128, frames_per_proc=256, discount=0.99, lr=0.0002, gae_lambda=0.95, entropy_coef=0.01, value_loss_coef=0.5, max_grad_norm=0.5, optim_eps=1e-08, optim_alpha=0.99, clip_eps=0.2, recurrence=1, text=False, buffer_size=10000, target_update=10)

Device: cuda

Environments loaded

Training status loaded

Observations preprocessor loaded
Model loaded

ACModel(
  (image_conv): Sequential(
    (0): Conv2d(3, 32, kernel_size=(12, 12), stride=(6, 6))
    (1): ReLU()
    (2): Conv2d(32, 64, kernel_size=(9, 9), stride=(4, 4))
    (3): ReLU()
    (4): Conv2d(64, 128, kernel_size=(3, 3), stride=(2, 2))
    (5): ReLU()
    (6): Conv2d(128, 256, kernel_size=(3, 3), stride=(1, 1))
    (7): ReLU()
  )
  (actor): Sequential(
    (0): Linear(in_features=2304, out_features=512, bias=True)
    (1): ReLU()
    (2): Linear(in_features=512, out_features=64, bias=True)
    (3): ReLU()
    (4): Linear(in_features=64, out_features=7, bias=True)
  )
  (critic): Sequential(
    (0): Linear(in_features=2304, out_features=512, bias=True)
    (1): ReLU()
    (2): Linear(in_features=512, out_features=64, bias=True)
    (3): ReLU()
    (4): Linear(in_features=64, out_features=1, bias=True)
  )
)

Optimizer loaded

discover.py --task-config task1 --discover 1 --algo ppo --env MiniGrid-ConfigWorld-v0-havekey --lr 0.0002 --AnomalyNN test_24 --model 20240725-seed1 --discount 0.99

Namespace(task_config='task1', discover=1, algo='ppo', env='MiniGrid-ConfigWorld-v0-havekey', model='20240725-seed1', seed=1, log_interval=1, save_interval=10, procs=1, frames=10000000, AnomalyNN='test_24', epochs=32, batch_size=128, frames_per_proc=256, discount=0.99, lr=0.0002, gae_lambda=0.95, entropy_coef=0.01, value_loss_coef=0.5, max_grad_norm=0.5, optim_eps=1e-08, optim_alpha=0.99, clip_eps=0.2, recurrence=1, text=False, buffer_size=10000, target_update=10)

Device: cuda

Environments loaded

Training status loaded

Observations preprocessor loaded
Model loaded

ACModel(
  (image_conv): Sequential(
    (0): Conv2d(3, 32, kernel_size=(12, 12), stride=(6, 6))
    (1): ReLU()
    (2): Conv2d(32, 64, kernel_size=(9, 9), stride=(4, 4))
    (3): ReLU()
    (4): Conv2d(64, 128, kernel_size=(3, 3), stride=(2, 2))
    (5): ReLU()
    (6): Conv2d(128, 256, kernel_size=(3, 3), stride=(1, 1))
    (7): ReLU()
  )
  (actor): Sequential(
    (0): Linear(in_features=2304, out_features=512, bias=True)
    (1): ReLU()
    (2): Linear(in_features=512, out_features=64, bias=True)
    (3): ReLU()
    (4): Linear(in_features=64, out_features=7, bias=True)
  )
  (critic): Sequential(
    (0): Linear(in_features=2304, out_features=512, bias=True)
    (1): ReLU()
    (2): Linear(in_features=512, out_features=64, bias=True)
    (3): ReLU()
    (4): Linear(in_features=64, out_features=1, bias=True)
  )
)

Optimizer loaded

discover.py --task-config task1 --discover 1 --algo ppo --env MiniGrid-ConfigWorld-v0-havekey --lr 0.0002 --AnomalyNN test_8 --model 20240725-seed1 --discount 0.99

Namespace(task_config='task1', discover=1, algo='ppo', env='MiniGrid-ConfigWorld-v0-havekey', model='20240725-seed1', seed=1, log_interval=1, save_interval=10, procs=1, frames=10000000, AnomalyNN='test_8', epochs=32, batch_size=128, frames_per_proc=256, discount=0.99, lr=0.0002, gae_lambda=0.95, entropy_coef=0.01, value_loss_coef=0.5, max_grad_norm=0.5, optim_eps=1e-08, optim_alpha=0.99, clip_eps=0.2, recurrence=1, text=False, buffer_size=10000, target_update=10)

Device: cuda

Environments loaded

Training status loaded

Observations preprocessor loaded
Model loaded

ACModel(
  (image_conv): Sequential(
    (0): Conv2d(3, 32, kernel_size=(12, 12), stride=(6, 6))
    (1): ReLU()
    (2): Conv2d(32, 64, kernel_size=(9, 9), stride=(4, 4))
    (3): ReLU()
    (4): Conv2d(64, 128, kernel_size=(3, 3), stride=(2, 2))
    (5): ReLU()
    (6): Conv2d(128, 256, kernel_size=(3, 3), stride=(1, 1))
    (7): ReLU()
  )
  (actor): Sequential(
    (0): Linear(in_features=2304, out_features=512, bias=True)
    (1): ReLU()
    (2): Linear(in_features=512, out_features=64, bias=True)
    (3): ReLU()
    (4): Linear(in_features=64, out_features=7, bias=True)
  )
  (critic): Sequential(
    (0): Linear(in_features=2304, out_features=512, bias=True)
    (1): ReLU()
    (2): Linear(in_features=512, out_features=64, bias=True)
    (3): ReLU()
    (4): Linear(in_features=64, out_features=1, bias=True)
  )
)

Optimizer loaded

discover.py --task-config task1 --discover 1 --algo ppo --env MiniGrid-ConfigWorld-v0-havekey --lr 0.0002 --AnomalyNN test_8 --model 20240725-seed1 --discount 0.99

Namespace(task_config='task1', discover=1, algo='ppo', env='MiniGrid-ConfigWorld-v0-havekey', model='20240725-seed1', seed=1, log_interval=1, save_interval=10, procs=1, frames=10000000, AnomalyNN='test_8', epochs=32, batch_size=128, frames_per_proc=256, discount=0.99, lr=0.0002, gae_lambda=0.95, entropy_coef=0.01, value_loss_coef=0.5, max_grad_norm=0.5, optim_eps=1e-08, optim_alpha=0.99, clip_eps=0.2, recurrence=1, text=False, buffer_size=10000, target_update=10)

Device: cuda

Environments loaded

Training status loaded

Observations preprocessor loaded
Model loaded

ACModel(
  (image_conv): Sequential(
    (0): Conv2d(3, 32, kernel_size=(12, 12), stride=(6, 6))
    (1): ReLU()
    (2): Conv2d(32, 64, kernel_size=(9, 9), stride=(4, 4))
    (3): ReLU()
    (4): Conv2d(64, 128, kernel_size=(3, 3), stride=(2, 2))
    (5): ReLU()
    (6): Conv2d(128, 256, kernel_size=(3, 3), stride=(1, 1))
    (7): ReLU()
  )
  (actor): Sequential(
    (0): Linear(in_features=2304, out_features=512, bias=True)
    (1): ReLU()
    (2): Linear(in_features=512, out_features=64, bias=True)
    (3): ReLU()
    (4): Linear(in_features=64, out_features=7, bias=True)
  )
  (critic): Sequential(
    (0): Linear(in_features=2304, out_features=512, bias=True)
    (1): ReLU()
    (2): Linear(in_features=512, out_features=64, bias=True)
    (3): ReLU()
    (4): Linear(in_features=64, out_features=1, bias=True)
  )
)

Optimizer loaded

discover.py --task-config task1 --discover 1 --algo ppo --env MiniGrid-ConfigWorld-v0-havekey --lr 0.0002 --AnomalyNN test_8 --model 20240725-seed1 --discount 0.99

Namespace(task_config='task1', discover=1, algo='ppo', env='MiniGrid-ConfigWorld-v0-havekey', model='20240725-seed1', seed=1, log_interval=1, save_interval=10, procs=1, frames=10000000, AnomalyNN='test_8', epochs=32, batch_size=128, frames_per_proc=256, discount=0.99, lr=0.0002, gae_lambda=0.95, entropy_coef=0.01, value_loss_coef=0.5, max_grad_norm=0.5, optim_eps=1e-08, optim_alpha=0.99, clip_eps=0.2, recurrence=1, text=False, buffer_size=10000, target_update=10)

Device: cuda

Environments loaded

Training status loaded

Observations preprocessor loaded
Model loaded

ACModel(
  (image_conv): Sequential(
    (0): Conv2d(3, 32, kernel_size=(12, 12), stride=(6, 6))
    (1): ReLU()
    (2): Conv2d(32, 64, kernel_size=(9, 9), stride=(4, 4))
    (3): ReLU()
    (4): Conv2d(64, 128, kernel_size=(3, 3), stride=(2, 2))
    (5): ReLU()
    (6): Conv2d(128, 256, kernel_size=(3, 3), stride=(1, 1))
    (7): ReLU()
  )
  (actor): Sequential(
    (0): Linear(in_features=2304, out_features=512, bias=True)
    (1): ReLU()
    (2): Linear(in_features=512, out_features=64, bias=True)
    (3): ReLU()
    (4): Linear(in_features=64, out_features=7, bias=True)
  )
  (critic): Sequential(
    (0): Linear(in_features=2304, out_features=512, bias=True)
    (1): ReLU()
    (2): Linear(in_features=512, out_features=64, bias=True)
    (3): ReLU()
    (4): Linear(in_features=64, out_features=1, bias=True)
  )
)

Optimizer loaded

discover.py --task-config task1 --discover 1 --algo ppo --env MiniGrid-ConfigWorld-v0-havekey --lr 0.0002 --AnomalyNN test_8 --model 20240725-seed1 --discount 0.99

Namespace(task_config='task1', discover=1, algo='ppo', env='MiniGrid-ConfigWorld-v0-havekey', model='20240725-seed1', seed=1, log_interval=1, save_interval=10, procs=1, frames=10000000, AnomalyNN='test_8', epochs=32, batch_size=128, frames_per_proc=256, discount=0.99, lr=0.0002, gae_lambda=0.95, entropy_coef=0.01, value_loss_coef=0.5, max_grad_norm=0.5, optim_eps=1e-08, optim_alpha=0.99, clip_eps=0.2, recurrence=1, text=False, buffer_size=10000, target_update=10)

Device: cuda

Environments loaded

Training status loaded

Observations preprocessor loaded
Model loaded

ACModel(
  (image_conv): Sequential(
    (0): Conv2d(3, 32, kernel_size=(12, 12), stride=(6, 6))
    (1): ReLU()
    (2): Conv2d(32, 64, kernel_size=(9, 9), stride=(4, 4))
    (3): ReLU()
    (4): Conv2d(64, 128, kernel_size=(3, 3), stride=(2, 2))
    (5): ReLU()
    (6): Conv2d(128, 256, kernel_size=(3, 3), stride=(1, 1))
    (7): ReLU()
  )
  (actor): Sequential(
    (0): Linear(in_features=2304, out_features=512, bias=True)
    (1): ReLU()
    (2): Linear(in_features=512, out_features=64, bias=True)
    (3): ReLU()
    (4): Linear(in_features=64, out_features=7, bias=True)
  )
  (critic): Sequential(
    (0): Linear(in_features=2304, out_features=512, bias=True)
    (1): ReLU()
    (2): Linear(in_features=512, out_features=64, bias=True)
    (3): ReLU()
    (4): Linear(in_features=64, out_features=1, bias=True)
  )
)

Optimizer loaded

discover.py --task-config task1 --discover 1 --algo ppo --env MiniGrid-ConfigWorld-v0-havekey --lr 0.0002 --AnomalyNN test_8 --model 20240725-seed1 --discount 0.99

Namespace(task_config='task1', discover=1, algo='ppo', env='MiniGrid-ConfigWorld-v0-havekey', model='20240725-seed1', seed=1, log_interval=1, save_interval=10, procs=1, frames=10000000, AnomalyNN='test_8', epochs=32, batch_size=128, frames_per_proc=256, discount=0.99, lr=0.0002, gae_lambda=0.95, entropy_coef=0.01, value_loss_coef=0.5, max_grad_norm=0.5, optim_eps=1e-08, optim_alpha=0.99, clip_eps=0.2, recurrence=1, text=False, buffer_size=10000, target_update=10)

Device: cuda

Environments loaded

Training status loaded

Observations preprocessor loaded
Model loaded

ACModel(
  (image_conv): Sequential(
    (0): Conv2d(3, 32, kernel_size=(12, 12), stride=(6, 6))
    (1): ReLU()
    (2): Conv2d(32, 64, kernel_size=(9, 9), stride=(4, 4))
    (3): ReLU()
    (4): Conv2d(64, 128, kernel_size=(3, 3), stride=(2, 2))
    (5): ReLU()
    (6): Conv2d(128, 256, kernel_size=(3, 3), stride=(1, 1))
    (7): ReLU()
  )
  (actor): Sequential(
    (0): Linear(in_features=2304, out_features=512, bias=True)
    (1): ReLU()
    (2): Linear(in_features=512, out_features=64, bias=True)
    (3): ReLU()
    (4): Linear(in_features=64, out_features=7, bias=True)
  )
  (critic): Sequential(
    (0): Linear(in_features=2304, out_features=512, bias=True)
    (1): ReLU()
    (2): Linear(in_features=512, out_features=64, bias=True)
    (3): ReLU()
    (4): Linear(in_features=64, out_features=1, bias=True)
  )
)

Optimizer loaded

discover.py --task-config task1 --discover 1 --algo ppo --env MiniGrid-ConfigWorld-v0-havekey --lr 0.0002 --AnomalyNN test_8 --model 20240725-seed1 --discount 0.99

Namespace(task_config='task1', discover=1, algo='ppo', env='MiniGrid-ConfigWorld-v0-havekey', model='20240725-seed1', seed=1, log_interval=1, save_interval=10, procs=1, frames=10000000, AnomalyNN='test_8', epochs=32, batch_size=128, frames_per_proc=256, discount=0.99, lr=0.0002, gae_lambda=0.95, entropy_coef=0.01, value_loss_coef=0.5, max_grad_norm=0.5, optim_eps=1e-08, optim_alpha=0.99, clip_eps=0.2, recurrence=1, text=False, buffer_size=10000, target_update=10)

Device: cuda

Environments loaded

Training status loaded

Observations preprocessor loaded
Model loaded

ACModel(
  (image_conv): Sequential(
    (0): Conv2d(3, 32, kernel_size=(12, 12), stride=(6, 6))
    (1): ReLU()
    (2): Conv2d(32, 64, kernel_size=(9, 9), stride=(4, 4))
    (3): ReLU()
    (4): Conv2d(64, 128, kernel_size=(3, 3), stride=(2, 2))
    (5): ReLU()
    (6): Conv2d(128, 256, kernel_size=(3, 3), stride=(1, 1))
    (7): ReLU()
  )
  (actor): Sequential(
    (0): Linear(in_features=2304, out_features=512, bias=True)
    (1): ReLU()
    (2): Linear(in_features=512, out_features=64, bias=True)
    (3): ReLU()
    (4): Linear(in_features=64, out_features=7, bias=True)
  )
  (critic): Sequential(
    (0): Linear(in_features=2304, out_features=512, bias=True)
    (1): ReLU()
    (2): Linear(in_features=512, out_features=64, bias=True)
    (3): ReLU()
    (4): Linear(in_features=64, out_features=1, bias=True)
  )
)

Optimizer loaded

discover.py --task-config task1 --discover 1 --algo ppo --env MiniGrid-ConfigWorld-v0-havekey --lr 0.0002 --AnomalyNN test_8 --model 20240725-seed1 --discount 0.99

Namespace(task_config='task1', discover=1, algo='ppo', env='MiniGrid-ConfigWorld-v0-havekey', model='20240725-seed1', seed=1, log_interval=1, save_interval=10, procs=1, frames=10000000, AnomalyNN='test_8', epochs=32, batch_size=128, frames_per_proc=256, discount=0.99, lr=0.0002, gae_lambda=0.95, entropy_coef=0.01, value_loss_coef=0.5, max_grad_norm=0.5, optim_eps=1e-08, optim_alpha=0.99, clip_eps=0.2, recurrence=1, text=False, buffer_size=10000, target_update=10)

Device: cuda

Environments loaded

Training status loaded

Observations preprocessor loaded
Model loaded

ACModel(
  (image_conv): Sequential(
    (0): Conv2d(3, 32, kernel_size=(12, 12), stride=(6, 6))
    (1): ReLU()
    (2): Conv2d(32, 64, kernel_size=(9, 9), stride=(4, 4))
    (3): ReLU()
    (4): Conv2d(64, 128, kernel_size=(3, 3), stride=(2, 2))
    (5): ReLU()
    (6): Conv2d(128, 256, kernel_size=(3, 3), stride=(1, 1))
    (7): ReLU()
  )
  (actor): Sequential(
    (0): Linear(in_features=2304, out_features=512, bias=True)
    (1): ReLU()
    (2): Linear(in_features=512, out_features=64, bias=True)
    (3): ReLU()
    (4): Linear(in_features=64, out_features=7, bias=True)
  )
  (critic): Sequential(
    (0): Linear(in_features=2304, out_features=512, bias=True)
    (1): ReLU()
    (2): Linear(in_features=512, out_features=64, bias=True)
    (3): ReLU()
    (4): Linear(in_features=64, out_features=1, bias=True)
  )
)

Optimizer loaded

discover.py --task-config task1 --discover 1 --algo ppo --env MiniGrid-ConfigWorld-v0-havekey --lr 0.0002 --AnomalyNN test_8 --model 20240725-seed1 --discount 0.99

Namespace(task_config='task1', discover=1, algo='ppo', env='MiniGrid-ConfigWorld-v0-havekey', model='20240725-seed1', seed=1, log_interval=1, save_interval=10, procs=1, frames=10000000, AnomalyNN='test_8', epochs=32, batch_size=128, frames_per_proc=256, discount=0.99, lr=0.0002, gae_lambda=0.95, entropy_coef=0.01, value_loss_coef=0.5, max_grad_norm=0.5, optim_eps=1e-08, optim_alpha=0.99, clip_eps=0.2, recurrence=1, text=False, buffer_size=10000, target_update=10)

Device: cuda

Environments loaded

Training status loaded

Observations preprocessor loaded
Model loaded

ACModel(
  (image_conv): Sequential(
    (0): Conv2d(3, 32, kernel_size=(12, 12), stride=(6, 6))
    (1): ReLU()
    (2): Conv2d(32, 64, kernel_size=(9, 9), stride=(4, 4))
    (3): ReLU()
    (4): Conv2d(64, 128, kernel_size=(3, 3), stride=(2, 2))
    (5): ReLU()
    (6): Conv2d(128, 256, kernel_size=(3, 3), stride=(1, 1))
    (7): ReLU()
  )
  (actor): Sequential(
    (0): Linear(in_features=2304, out_features=512, bias=True)
    (1): ReLU()
    (2): Linear(in_features=512, out_features=64, bias=True)
    (3): ReLU()
    (4): Linear(in_features=64, out_features=7, bias=True)
  )
  (critic): Sequential(
    (0): Linear(in_features=2304, out_features=512, bias=True)
    (1): ReLU()
    (2): Linear(in_features=512, out_features=64, bias=True)
    (3): ReLU()
    (4): Linear(in_features=64, out_features=1, bias=True)
  )
)

Optimizer loaded

discover.py --task-config task1 --discover 1 --algo ppo --env MiniGrid-ConfigWorld-v0-havekey --lr 0.0002 --AnomalyNN test_8 --model 20240725-seed1 --discount 0.99

Namespace(task_config='task1', discover=1, algo='ppo', env='MiniGrid-ConfigWorld-v0-havekey', model='20240725-seed1', seed=1, log_interval=1, save_interval=10, procs=1, frames=10000000, AnomalyNN='test_8', epochs=32, batch_size=128, frames_per_proc=256, discount=0.99, lr=0.0002, gae_lambda=0.95, entropy_coef=0.01, value_loss_coef=0.5, max_grad_norm=0.5, optim_eps=1e-08, optim_alpha=0.99, clip_eps=0.2, recurrence=1, text=False, buffer_size=10000, target_update=10)

Device: cuda

Environments loaded

Training status loaded

Observations preprocessor loaded
Model loaded

ACModel(
  (image_conv): Sequential(
    (0): Conv2d(3, 32, kernel_size=(12, 12), stride=(6, 6))
    (1): ReLU()
    (2): Conv2d(32, 64, kernel_size=(9, 9), stride=(4, 4))
    (3): ReLU()
    (4): Conv2d(64, 128, kernel_size=(3, 3), stride=(2, 2))
    (5): ReLU()
    (6): Conv2d(128, 256, kernel_size=(3, 3), stride=(1, 1))
    (7): ReLU()
  )
  (actor): Sequential(
    (0): Linear(in_features=2304, out_features=512, bias=True)
    (1): ReLU()
    (2): Linear(in_features=512, out_features=64, bias=True)
    (3): ReLU()
    (4): Linear(in_features=64, out_features=7, bias=True)
  )
  (critic): Sequential(
    (0): Linear(in_features=2304, out_features=512, bias=True)
    (1): ReLU()
    (2): Linear(in_features=512, out_features=64, bias=True)
    (3): ReLU()
    (4): Linear(in_features=64, out_features=1, bias=True)
  )
)

Optimizer loaded

discover.py --task-config task1 --discover 1 --algo ppo --env MiniGrid-ConfigWorld-v0-havekey --lr 0.0002 --AnomalyNN test_8 --model 20240725-seed1 --discount 0.99

Namespace(task_config='task1', discover=1, algo='ppo', env='MiniGrid-ConfigWorld-v0-havekey', model='20240725-seed1', seed=1, log_interval=1, save_interval=10, procs=1, frames=10000000, AnomalyNN='test_8', epochs=32, batch_size=128, frames_per_proc=256, discount=0.99, lr=0.0002, gae_lambda=0.95, entropy_coef=0.01, value_loss_coef=0.5, max_grad_norm=0.5, optim_eps=1e-08, optim_alpha=0.99, clip_eps=0.2, recurrence=1, text=False, buffer_size=10000, target_update=10)

Device: cuda

Environments loaded

Training status loaded

Observations preprocessor loaded
Model loaded

ACModel(
  (image_conv): Sequential(
    (0): Conv2d(3, 32, kernel_size=(12, 12), stride=(6, 6))
    (1): ReLU()
    (2): Conv2d(32, 64, kernel_size=(9, 9), stride=(4, 4))
    (3): ReLU()
    (4): Conv2d(64, 128, kernel_size=(3, 3), stride=(2, 2))
    (5): ReLU()
    (6): Conv2d(128, 256, kernel_size=(3, 3), stride=(1, 1))
    (7): ReLU()
  )
  (actor): Sequential(
    (0): Linear(in_features=2304, out_features=512, bias=True)
    (1): ReLU()
    (2): Linear(in_features=512, out_features=64, bias=True)
    (3): ReLU()
    (4): Linear(in_features=64, out_features=7, bias=True)
  )
  (critic): Sequential(
    (0): Linear(in_features=2304, out_features=512, bias=True)
    (1): ReLU()
    (2): Linear(in_features=512, out_features=64, bias=True)
    (3): ReLU()
    (4): Linear(in_features=64, out_features=1, bias=True)
  )
)

Optimizer loaded

discover.py --task-config task1 --discover 1 --algo ppo --env MiniGrid-ConfigWorld-v0-havekey --lr 0.0002 --AnomalyNN test_8 --model 20240725-seed1 --discount 0.99

Namespace(task_config='task1', discover=1, algo='ppo', env='MiniGrid-ConfigWorld-v0-havekey', model='20240725-seed1', seed=1, log_interval=1, save_interval=10, procs=1, frames=10000000, AnomalyNN='test_8', epochs=32, batch_size=128, frames_per_proc=256, discount=0.99, lr=0.0002, gae_lambda=0.95, entropy_coef=0.01, value_loss_coef=0.5, max_grad_norm=0.5, optim_eps=1e-08, optim_alpha=0.99, clip_eps=0.2, recurrence=1, text=False, buffer_size=10000, target_update=10)

Device: cuda

Environments loaded

Training status loaded

Observations preprocessor loaded
Model loaded

ACModel(
  (image_conv): Sequential(
    (0): Conv2d(3, 32, kernel_size=(12, 12), stride=(6, 6))
    (1): ReLU()
    (2): Conv2d(32, 64, kernel_size=(9, 9), stride=(4, 4))
    (3): ReLU()
    (4): Conv2d(64, 128, kernel_size=(3, 3), stride=(2, 2))
    (5): ReLU()
    (6): Conv2d(128, 256, kernel_size=(3, 3), stride=(1, 1))
    (7): ReLU()
  )
  (actor): Sequential(
    (0): Linear(in_features=2304, out_features=512, bias=True)
    (1): ReLU()
    (2): Linear(in_features=512, out_features=64, bias=True)
    (3): ReLU()
    (4): Linear(in_features=64, out_features=7, bias=True)
  )
  (critic): Sequential(
    (0): Linear(in_features=2304, out_features=512, bias=True)
    (1): ReLU()
    (2): Linear(in_features=512, out_features=64, bias=True)
    (3): ReLU()
    (4): Linear(in_features=64, out_features=1, bias=True)
  )
)

Optimizer loaded

discover.py --task-config task1 --discover 1 --algo ppo --env MiniGrid-ConfigWorld-v0-havekey --lr 0.0002 --AnomalyNN test_8 --model 20240725-seed1 --discount 0.99

Namespace(task_config='task1', discover=1, algo='ppo', env='MiniGrid-ConfigWorld-v0-havekey', model='20240725-seed1', seed=1, log_interval=1, save_interval=10, procs=1, frames=10000000, AnomalyNN='test_8', epochs=32, batch_size=128, frames_per_proc=256, discount=0.99, lr=0.0002, gae_lambda=0.95, entropy_coef=0.01, value_loss_coef=0.5, max_grad_norm=0.5, optim_eps=1e-08, optim_alpha=0.99, clip_eps=0.2, recurrence=1, text=False, buffer_size=10000, target_update=10)

Device: cuda

Environments loaded

Training status loaded

Observations preprocessor loaded
Model loaded

ACModel(
  (image_conv): Sequential(
    (0): Conv2d(3, 32, kernel_size=(12, 12), stride=(6, 6))
    (1): ReLU()
    (2): Conv2d(32, 64, kernel_size=(9, 9), stride=(4, 4))
    (3): ReLU()
    (4): Conv2d(64, 128, kernel_size=(3, 3), stride=(2, 2))
    (5): ReLU()
    (6): Conv2d(128, 256, kernel_size=(3, 3), stride=(1, 1))
    (7): ReLU()
  )
  (actor): Sequential(
    (0): Linear(in_features=2304, out_features=512, bias=True)
    (1): ReLU()
    (2): Linear(in_features=512, out_features=64, bias=True)
    (3): ReLU()
    (4): Linear(in_features=64, out_features=7, bias=True)
  )
  (critic): Sequential(
    (0): Linear(in_features=2304, out_features=512, bias=True)
    (1): ReLU()
    (2): Linear(in_features=512, out_features=64, bias=True)
    (3): ReLU()
    (4): Linear(in_features=64, out_features=1, bias=True)
  )
)

Optimizer loaded

discover.py --task-config task1 --discover 1 --algo ppo --env MiniGrid-ConfigWorld-v0-havekey --lr 0.0002 --AnomalyNN test_8 --model 20240725-seed1 --discount 0.99

Namespace(task_config='task1', discover=1, algo='ppo', env='MiniGrid-ConfigWorld-v0-havekey', model='20240725-seed1', seed=1, log_interval=1, save_interval=10, procs=1, frames=10000000, AnomalyNN='test_8', epochs=32, batch_size=128, frames_per_proc=256, discount=0.99, lr=0.0002, gae_lambda=0.95, entropy_coef=0.01, value_loss_coef=0.5, max_grad_norm=0.5, optim_eps=1e-08, optim_alpha=0.99, clip_eps=0.2, recurrence=1, text=False, buffer_size=10000, target_update=10)

Device: cuda

Environments loaded

Training status loaded

Observations preprocessor loaded
Model loaded

ACModel(
  (image_conv): Sequential(
    (0): Conv2d(3, 32, kernel_size=(12, 12), stride=(6, 6))
    (1): ReLU()
    (2): Conv2d(32, 64, kernel_size=(9, 9), stride=(4, 4))
    (3): ReLU()
    (4): Conv2d(64, 128, kernel_size=(3, 3), stride=(2, 2))
    (5): ReLU()
    (6): Conv2d(128, 256, kernel_size=(3, 3), stride=(1, 1))
    (7): ReLU()
  )
  (actor): Sequential(
    (0): Linear(in_features=2304, out_features=512, bias=True)
    (1): ReLU()
    (2): Linear(in_features=512, out_features=64, bias=True)
    (3): ReLU()
    (4): Linear(in_features=64, out_features=7, bias=True)
  )
  (critic): Sequential(
    (0): Linear(in_features=2304, out_features=512, bias=True)
    (1): ReLU()
    (2): Linear(in_features=512, out_features=64, bias=True)
    (3): ReLU()
    (4): Linear(in_features=64, out_features=1, bias=True)
  )
)

Optimizer loaded

discover.py --task-config task1 --discover 1 --algo ppo --env MiniGrid-ConfigWorld-v0-havekey --lr 0.0002 --AnomalyNN test_8 --model 20240725-seed1 --discount 0.99

Namespace(task_config='task1', discover=1, algo='ppo', env='MiniGrid-ConfigWorld-v0-havekey', model='20240725-seed1', seed=1, log_interval=1, save_interval=10, procs=1, frames=10000000, AnomalyNN='test_8', epochs=32, batch_size=128, frames_per_proc=256, discount=0.99, lr=0.0002, gae_lambda=0.95, entropy_coef=0.01, value_loss_coef=0.5, max_grad_norm=0.5, optim_eps=1e-08, optim_alpha=0.99, clip_eps=0.2, recurrence=1, text=False, buffer_size=10000, target_update=10)

Device: cuda

Environments loaded

Training status loaded

Observations preprocessor loaded
Model loaded

ACModel(
  (image_conv): Sequential(
    (0): Conv2d(3, 32, kernel_size=(12, 12), stride=(6, 6))
    (1): ReLU()
    (2): Conv2d(32, 64, kernel_size=(9, 9), stride=(4, 4))
    (3): ReLU()
    (4): Conv2d(64, 128, kernel_size=(3, 3), stride=(2, 2))
    (5): ReLU()
    (6): Conv2d(128, 256, kernel_size=(3, 3), stride=(1, 1))
    (7): ReLU()
  )
  (actor): Sequential(
    (0): Linear(in_features=2304, out_features=512, bias=True)
    (1): ReLU()
    (2): Linear(in_features=512, out_features=64, bias=True)
    (3): ReLU()
    (4): Linear(in_features=64, out_features=7, bias=True)
  )
  (critic): Sequential(
    (0): Linear(in_features=2304, out_features=512, bias=True)
    (1): ReLU()
    (2): Linear(in_features=512, out_features=64, bias=True)
    (3): ReLU()
    (4): Linear(in_features=64, out_features=1, bias=True)
  )
)

Optimizer loaded

discover.py --task-config task1 --discover 1 --algo ppo --env MiniGrid-ConfigWorld-v0-havekey --lr 0.0002 --AnomalyNN test_8 --model 20240725-seed1 --discount 0.99

Namespace(task_config='task1', discover=1, algo='ppo', env='MiniGrid-ConfigWorld-v0-havekey', model='20240725-seed1', seed=1, log_interval=1, save_interval=10, procs=1, frames=10000000, AnomalyNN='test_8', epochs=32, batch_size=128, frames_per_proc=256, discount=0.99, lr=0.0002, gae_lambda=0.95, entropy_coef=0.01, value_loss_coef=0.5, max_grad_norm=0.5, optim_eps=1e-08, optim_alpha=0.99, clip_eps=0.2, recurrence=1, text=False, buffer_size=10000, target_update=10)

Device: cuda

Environments loaded

Training status loaded

Observations preprocessor loaded
Model loaded

ACModel(
  (image_conv): Sequential(
    (0): Conv2d(3, 32, kernel_size=(12, 12), stride=(6, 6))
    (1): ReLU()
    (2): Conv2d(32, 64, kernel_size=(9, 9), stride=(4, 4))
    (3): ReLU()
    (4): Conv2d(64, 128, kernel_size=(3, 3), stride=(2, 2))
    (5): ReLU()
    (6): Conv2d(128, 256, kernel_size=(3, 3), stride=(1, 1))
    (7): ReLU()
  )
  (actor): Sequential(
    (0): Linear(in_features=2304, out_features=512, bias=True)
    (1): ReLU()
    (2): Linear(in_features=512, out_features=64, bias=True)
    (3): ReLU()
    (4): Linear(in_features=64, out_features=7, bias=True)
  )
  (critic): Sequential(
    (0): Linear(in_features=2304, out_features=512, bias=True)
    (1): ReLU()
    (2): Linear(in_features=512, out_features=64, bias=True)
    (3): ReLU()
    (4): Linear(in_features=64, out_features=1, bias=True)
  )
)

Optimizer loaded

discover.py --task-config task1 --discover 1 --algo ppo --env MiniGrid-ConfigWorld-v0-havekey --lr 0.0002 --AnomalyNN test_8 --model 20240725-seed1 --discount 0.99

Namespace(task_config='task1', discover=1, algo='ppo', env='MiniGrid-ConfigWorld-v0-havekey', model='20240725-seed1', seed=1, log_interval=1, save_interval=10, procs=1, frames=10000000, AnomalyNN='test_8', epochs=32, batch_size=128, frames_per_proc=256, discount=0.99, lr=0.0002, gae_lambda=0.95, entropy_coef=0.01, value_loss_coef=0.5, max_grad_norm=0.5, optim_eps=1e-08, optim_alpha=0.99, clip_eps=0.2, recurrence=1, text=False, buffer_size=10000, target_update=10)

Device: cuda

Environments loaded

Training status loaded

Observations preprocessor loaded
Model loaded

ACModel(
  (image_conv): Sequential(
    (0): Conv2d(3, 32, kernel_size=(12, 12), stride=(6, 6))
    (1): ReLU()
    (2): Conv2d(32, 64, kernel_size=(9, 9), stride=(4, 4))
    (3): ReLU()
    (4): Conv2d(64, 128, kernel_size=(3, 3), stride=(2, 2))
    (5): ReLU()
    (6): Conv2d(128, 256, kernel_size=(3, 3), stride=(1, 1))
    (7): ReLU()
  )
  (actor): Sequential(
    (0): Linear(in_features=2304, out_features=512, bias=True)
    (1): ReLU()
    (2): Linear(in_features=512, out_features=64, bias=True)
    (3): ReLU()
    (4): Linear(in_features=64, out_features=7, bias=True)
  )
  (critic): Sequential(
    (0): Linear(in_features=2304, out_features=512, bias=True)
    (1): ReLU()
    (2): Linear(in_features=512, out_features=64, bias=True)
    (3): ReLU()
    (4): Linear(in_features=64, out_features=1, bias=True)
  )
)

Optimizer loaded

discover.py --task-config task1 --discover 1 --algo ppo --env MiniGrid-ConfigWorld-v0-havekey --lr 0.0002 --AnomalyNN test_8 --model 20240725-seed1 --discount 0.99

Namespace(task_config='task1', discover=1, algo='ppo', env='MiniGrid-ConfigWorld-v0-havekey', model='20240725-seed1', seed=1, log_interval=1, save_interval=10, procs=1, frames=10000000, AnomalyNN='test_8', epochs=32, batch_size=128, frames_per_proc=256, discount=0.99, lr=0.0002, gae_lambda=0.95, entropy_coef=0.01, value_loss_coef=0.5, max_grad_norm=0.5, optim_eps=1e-08, optim_alpha=0.99, clip_eps=0.2, recurrence=1, text=False, buffer_size=10000, target_update=10)

Device: cuda

Environments loaded

Training status loaded

Observations preprocessor loaded
Model loaded

ACModel(
  (image_conv): Sequential(
    (0): Conv2d(3, 32, kernel_size=(12, 12), stride=(6, 6))
    (1): ReLU()
    (2): Conv2d(32, 64, kernel_size=(9, 9), stride=(4, 4))
    (3): ReLU()
    (4): Conv2d(64, 128, kernel_size=(3, 3), stride=(2, 2))
    (5): ReLU()
    (6): Conv2d(128, 256, kernel_size=(3, 3), stride=(1, 1))
    (7): ReLU()
  )
  (actor): Sequential(
    (0): Linear(in_features=2304, out_features=512, bias=True)
    (1): ReLU()
    (2): Linear(in_features=512, out_features=64, bias=True)
    (3): ReLU()
    (4): Linear(in_features=64, out_features=7, bias=True)
  )
  (critic): Sequential(
    (0): Linear(in_features=2304, out_features=512, bias=True)
    (1): ReLU()
    (2): Linear(in_features=512, out_features=64, bias=True)
    (3): ReLU()
    (4): Linear(in_features=64, out_features=1, bias=True)
  )
)

Optimizer loaded

discover.py --task-config task1 --discover 1 --algo ppo --env MiniGrid-ConfigWorld-v0-havekey --lr 0.0002 --AnomalyNN test_8 --model 20240725-seed1 --discount 0.99

Namespace(task_config='task1', discover=1, algo='ppo', env='MiniGrid-ConfigWorld-v0-havekey', model='20240725-seed1', seed=1, log_interval=1, save_interval=10, procs=1, frames=10000000, AnomalyNN='test_8', epochs=32, batch_size=128, frames_per_proc=256, discount=0.99, lr=0.0002, gae_lambda=0.95, entropy_coef=0.01, value_loss_coef=0.5, max_grad_norm=0.5, optim_eps=1e-08, optim_alpha=0.99, clip_eps=0.2, recurrence=1, text=False, buffer_size=10000, target_update=10)

Device: cuda

Environments loaded

Training status loaded

Observations preprocessor loaded
Model loaded

ACModel(
  (image_conv): Sequential(
    (0): Conv2d(3, 32, kernel_size=(12, 12), stride=(6, 6))
    (1): ReLU()
    (2): Conv2d(32, 64, kernel_size=(9, 9), stride=(4, 4))
    (3): ReLU()
    (4): Conv2d(64, 128, kernel_size=(3, 3), stride=(2, 2))
    (5): ReLU()
    (6): Conv2d(128, 256, kernel_size=(3, 3), stride=(1, 1))
    (7): ReLU()
  )
  (actor): Sequential(
    (0): Linear(in_features=2304, out_features=512, bias=True)
    (1): ReLU()
    (2): Linear(in_features=512, out_features=64, bias=True)
    (3): ReLU()
    (4): Linear(in_features=64, out_features=7, bias=True)
  )
  (critic): Sequential(
    (0): Linear(in_features=2304, out_features=512, bias=True)
    (1): ReLU()
    (2): Linear(in_features=512, out_features=64, bias=True)
    (3): ReLU()
    (4): Linear(in_features=64, out_features=1, bias=True)
  )
)

Optimizer loaded

discover.py --task-config task1 --discover 1 --algo ppo --env MiniGrid-ConfigWorld-v0-havekey --lr 0.0002 --AnomalyNN test_8 --model 20240725-seed1 --discount 0.99

Namespace(task_config='task1', discover=1, algo='ppo', env='MiniGrid-ConfigWorld-v0-havekey', model='20240725-seed1', seed=1, log_interval=1, save_interval=10, procs=1, frames=10000000, AnomalyNN='test_8', epochs=32, batch_size=128, frames_per_proc=256, discount=0.99, lr=0.0002, gae_lambda=0.95, entropy_coef=0.01, value_loss_coef=0.5, max_grad_norm=0.5, optim_eps=1e-08, optim_alpha=0.99, clip_eps=0.2, recurrence=1, text=False, buffer_size=10000, target_update=10)

Device: cuda

Environments loaded

Training status loaded

Observations preprocessor loaded
Model loaded

ACModel(
  (image_conv): Sequential(
    (0): Conv2d(3, 32, kernel_size=(12, 12), stride=(6, 6))
    (1): ReLU()
    (2): Conv2d(32, 64, kernel_size=(9, 9), stride=(4, 4))
    (3): ReLU()
    (4): Conv2d(64, 128, kernel_size=(3, 3), stride=(2, 2))
    (5): ReLU()
    (6): Conv2d(128, 256, kernel_size=(3, 3), stride=(1, 1))
    (7): ReLU()
  )
  (actor): Sequential(
    (0): Linear(in_features=2304, out_features=512, bias=True)
    (1): ReLU()
    (2): Linear(in_features=512, out_features=64, bias=True)
    (3): ReLU()
    (4): Linear(in_features=64, out_features=7, bias=True)
  )
  (critic): Sequential(
    (0): Linear(in_features=2304, out_features=512, bias=True)
    (1): ReLU()
    (2): Linear(in_features=512, out_features=64, bias=True)
    (3): ReLU()
    (4): Linear(in_features=64, out_features=1, bias=True)
  )
)

Optimizer loaded

discover.py --task-config task1 --discover 1 --algo ppo --env MiniGrid-ConfigWorld-v0-havekey --lr 0.0002 --AnomalyNN test_8 --model 20240725-seed1 --discount 0.99

Namespace(task_config='task1', discover=1, algo='ppo', env='MiniGrid-ConfigWorld-v0-havekey', model='20240725-seed1', seed=1, log_interval=1, save_interval=10, procs=1, frames=10000000, AnomalyNN='test_8', epochs=32, batch_size=128, frames_per_proc=256, discount=0.99, lr=0.0002, gae_lambda=0.95, entropy_coef=0.01, value_loss_coef=0.5, max_grad_norm=0.5, optim_eps=1e-08, optim_alpha=0.99, clip_eps=0.2, recurrence=1, text=False, buffer_size=10000, target_update=10)

Device: cuda

Environments loaded

Training status loaded

Observations preprocessor loaded
Model loaded

ACModel(
  (image_conv): Sequential(
    (0): Conv2d(3, 32, kernel_size=(12, 12), stride=(6, 6))
    (1): ReLU()
    (2): Conv2d(32, 64, kernel_size=(9, 9), stride=(4, 4))
    (3): ReLU()
    (4): Conv2d(64, 128, kernel_size=(3, 3), stride=(2, 2))
    (5): ReLU()
    (6): Conv2d(128, 256, kernel_size=(3, 3), stride=(1, 1))
    (7): ReLU()
  )
  (actor): Sequential(
    (0): Linear(in_features=2304, out_features=512, bias=True)
    (1): ReLU()
    (2): Linear(in_features=512, out_features=64, bias=True)
    (3): ReLU()
    (4): Linear(in_features=64, out_features=7, bias=True)
  )
  (critic): Sequential(
    (0): Linear(in_features=2304, out_features=512, bias=True)
    (1): ReLU()
    (2): Linear(in_features=512, out_features=64, bias=True)
    (3): ReLU()
    (4): Linear(in_features=64, out_features=1, bias=True)
  )
)

Optimizer loaded

discover.py --task-config task1 --discover 1 --algo ppo --env MiniGrid-ConfigWorld-v0-havekey --lr 0.0002 --AnomalyNN test_8 --model 20240725-seed1 --discount 0.99

Namespace(task_config='task1', discover=1, algo='ppo', env='MiniGrid-ConfigWorld-v0-havekey', model='20240725-seed1', seed=1, log_interval=1, save_interval=10, procs=1, frames=10000000, AnomalyNN='test_8', epochs=32, batch_size=128, frames_per_proc=256, discount=0.99, lr=0.0002, gae_lambda=0.95, entropy_coef=0.01, value_loss_coef=0.5, max_grad_norm=0.5, optim_eps=1e-08, optim_alpha=0.99, clip_eps=0.2, recurrence=1, text=False, buffer_size=10000, target_update=10)

Device: cuda

Environments loaded

Training status loaded

Observations preprocessor loaded
Model loaded

ACModel(
  (image_conv): Sequential(
    (0): Conv2d(3, 32, kernel_size=(12, 12), stride=(6, 6))
    (1): ReLU()
    (2): Conv2d(32, 64, kernel_size=(9, 9), stride=(4, 4))
    (3): ReLU()
    (4): Conv2d(64, 128, kernel_size=(3, 3), stride=(2, 2))
    (5): ReLU()
    (6): Conv2d(128, 256, kernel_size=(3, 3), stride=(1, 1))
    (7): ReLU()
  )
  (actor): Sequential(
    (0): Linear(in_features=2304, out_features=512, bias=True)
    (1): ReLU()
    (2): Linear(in_features=512, out_features=64, bias=True)
    (3): ReLU()
    (4): Linear(in_features=64, out_features=7, bias=True)
  )
  (critic): Sequential(
    (0): Linear(in_features=2304, out_features=512, bias=True)
    (1): ReLU()
    (2): Linear(in_features=512, out_features=64, bias=True)
    (3): ReLU()
    (4): Linear(in_features=64, out_features=1, bias=True)
  )
)

Optimizer loaded

discover.py --task-config task1 --discover 1 --algo ppo --env MiniGrid-ConfigWorld-v0-havekey --lr 0.0002 --AnomalyNN test_8 --model 20240725-seed1 --discount 0.99

Namespace(task_config='task1', discover=1, algo='ppo', env='MiniGrid-ConfigWorld-v0-havekey', model='20240725-seed1', seed=1, log_interval=1, save_interval=10, procs=1, frames=10000000, AnomalyNN='test_8', epochs=32, batch_size=128, frames_per_proc=256, discount=0.99, lr=0.0002, gae_lambda=0.95, entropy_coef=0.01, value_loss_coef=0.5, max_grad_norm=0.5, optim_eps=1e-08, optim_alpha=0.99, clip_eps=0.2, recurrence=1, text=False, buffer_size=10000, target_update=10)

Device: cuda

Environments loaded

Training status loaded

Observations preprocessor loaded
Model loaded

ACModel(
  (image_conv): Sequential(
    (0): Conv2d(3, 32, kernel_size=(12, 12), stride=(6, 6))
    (1): ReLU()
    (2): Conv2d(32, 64, kernel_size=(9, 9), stride=(4, 4))
    (3): ReLU()
    (4): Conv2d(64, 128, kernel_size=(3, 3), stride=(2, 2))
    (5): ReLU()
    (6): Conv2d(128, 256, kernel_size=(3, 3), stride=(1, 1))
    (7): ReLU()
  )
  (actor): Sequential(
    (0): Linear(in_features=2304, out_features=512, bias=True)
    (1): ReLU()
    (2): Linear(in_features=512, out_features=64, bias=True)
    (3): ReLU()
    (4): Linear(in_features=64, out_features=7, bias=True)
  )
  (critic): Sequential(
    (0): Linear(in_features=2304, out_features=512, bias=True)
    (1): ReLU()
    (2): Linear(in_features=512, out_features=64, bias=True)
    (3): ReLU()
    (4): Linear(in_features=64, out_features=1, bias=True)
  )
)

Optimizer loaded

discover.py --task-config task1 --discover 1 --algo ppo --env MiniGrid-ConfigWorld-v0-havekey --lr 0.0002 --AnomalyNN test_8 --model 20240725-seed1 --discount 0.99

Namespace(task_config='task1', discover=1, algo='ppo', env='MiniGrid-ConfigWorld-v0-havekey', model='20240725-seed1', seed=1, log_interval=1, save_interval=10, procs=1, frames=10000000, AnomalyNN='test_8', epochs=32, batch_size=128, frames_per_proc=256, discount=0.99, lr=0.0002, gae_lambda=0.95, entropy_coef=0.01, value_loss_coef=0.5, max_grad_norm=0.5, optim_eps=1e-08, optim_alpha=0.99, clip_eps=0.2, recurrence=1, text=False, buffer_size=10000, target_update=10)

Device: cuda

Environments loaded

Training status loaded

Observations preprocessor loaded
Model loaded

ACModel(
  (image_conv): Sequential(
    (0): Conv2d(3, 32, kernel_size=(12, 12), stride=(6, 6))
    (1): ReLU()
    (2): Conv2d(32, 64, kernel_size=(9, 9), stride=(4, 4))
    (3): ReLU()
    (4): Conv2d(64, 128, kernel_size=(3, 3), stride=(2, 2))
    (5): ReLU()
    (6): Conv2d(128, 256, kernel_size=(3, 3), stride=(1, 1))
    (7): ReLU()
  )
  (actor): Sequential(
    (0): Linear(in_features=2304, out_features=512, bias=True)
    (1): ReLU()
    (2): Linear(in_features=512, out_features=64, bias=True)
    (3): ReLU()
    (4): Linear(in_features=64, out_features=7, bias=True)
  )
  (critic): Sequential(
    (0): Linear(in_features=2304, out_features=512, bias=True)
    (1): ReLU()
    (2): Linear(in_features=512, out_features=64, bias=True)
    (3): ReLU()
    (4): Linear(in_features=64, out_features=1, bias=True)
  )
)

Optimizer loaded

discover.py --task-config task1 --discover 1 --algo ppo --env MiniGrid-ConfigWorld-v0-havekey --lr 0.0002 --AnomalyNN test_8 --model 20240725-seed1 --discount 0.99

Namespace(task_config='task1', discover=1, algo='ppo', env='MiniGrid-ConfigWorld-v0-havekey', model='20240725-seed1', seed=1, log_interval=1, save_interval=10, procs=1, frames=10000000, AnomalyNN='test_8', epochs=32, batch_size=128, frames_per_proc=256, discount=0.99, lr=0.0002, gae_lambda=0.95, entropy_coef=0.01, value_loss_coef=0.5, max_grad_norm=0.5, optim_eps=1e-08, optim_alpha=0.99, clip_eps=0.2, recurrence=1, text=False, buffer_size=10000, target_update=10)

Device: cuda

Environments loaded

Training status loaded

Observations preprocessor loaded
Model loaded

ACModel(
  (image_conv): Sequential(
    (0): Conv2d(3, 32, kernel_size=(12, 12), stride=(6, 6))
    (1): ReLU()
    (2): Conv2d(32, 64, kernel_size=(9, 9), stride=(4, 4))
    (3): ReLU()
    (4): Conv2d(64, 128, kernel_size=(3, 3), stride=(2, 2))
    (5): ReLU()
    (6): Conv2d(128, 256, kernel_size=(3, 3), stride=(1, 1))
    (7): ReLU()
  )
  (actor): Sequential(
    (0): Linear(in_features=2304, out_features=512, bias=True)
    (1): ReLU()
    (2): Linear(in_features=512, out_features=64, bias=True)
    (3): ReLU()
    (4): Linear(in_features=64, out_features=7, bias=True)
  )
  (critic): Sequential(
    (0): Linear(in_features=2304, out_features=512, bias=True)
    (1): ReLU()
    (2): Linear(in_features=512, out_features=64, bias=True)
    (3): ReLU()
    (4): Linear(in_features=64, out_features=1, bias=True)
  )
)

Optimizer loaded

discover.py --task-config task1 --discover 1 --algo ppo --env MiniGrid-ConfigWorld-v0-havekey --lr 0.0002 --AnomalyNN test_8 --model 20240725-seed1 --discount 0.99

Namespace(task_config='task1', discover=1, algo='ppo', env='MiniGrid-ConfigWorld-v0-havekey', model='20240725-seed1', seed=1, log_interval=1, save_interval=10, procs=1, frames=10000000, AnomalyNN='test_8', epochs=32, batch_size=128, frames_per_proc=256, discount=0.99, lr=0.0002, gae_lambda=0.95, entropy_coef=0.01, value_loss_coef=0.5, max_grad_norm=0.5, optim_eps=1e-08, optim_alpha=0.99, clip_eps=0.2, recurrence=1, text=False, buffer_size=10000, target_update=10)

Device: cuda

Environments loaded

Training status loaded

Observations preprocessor loaded
Model loaded

ACModel(
  (image_conv): Sequential(
    (0): Conv2d(3, 32, kernel_size=(12, 12), stride=(6, 6))
    (1): ReLU()
    (2): Conv2d(32, 64, kernel_size=(9, 9), stride=(4, 4))
    (3): ReLU()
    (4): Conv2d(64, 128, kernel_size=(3, 3), stride=(2, 2))
    (5): ReLU()
    (6): Conv2d(128, 256, kernel_size=(3, 3), stride=(1, 1))
    (7): ReLU()
  )
  (actor): Sequential(
    (0): Linear(in_features=2304, out_features=512, bias=True)
    (1): ReLU()
    (2): Linear(in_features=512, out_features=64, bias=True)
    (3): ReLU()
    (4): Linear(in_features=64, out_features=7, bias=True)
  )
  (critic): Sequential(
    (0): Linear(in_features=2304, out_features=512, bias=True)
    (1): ReLU()
    (2): Linear(in_features=512, out_features=64, bias=True)
    (3): ReLU()
    (4): Linear(in_features=64, out_features=1, bias=True)
  )
)

Optimizer loaded

discover.py --task-config task1 --discover 1 --algo ppo --env MiniGrid-ConfigWorld-v0-havekey --lr 0.0002 --AnomalyNN test_8 --model 20240725-seed1 --discount 0.99

Namespace(task_config='task1', discover=1, algo='ppo', env='MiniGrid-ConfigWorld-v0-havekey', model='20240725-seed1', seed=1, log_interval=1, save_interval=10, procs=1, frames=10000000, AnomalyNN='test_8', epochs=32, batch_size=128, frames_per_proc=256, discount=0.99, lr=0.0002, gae_lambda=0.95, entropy_coef=0.01, value_loss_coef=0.5, max_grad_norm=0.5, optim_eps=1e-08, optim_alpha=0.99, clip_eps=0.2, recurrence=1, text=False, buffer_size=10000, target_update=10)

Device: cuda

Environments loaded

Training status loaded

Observations preprocessor loaded
Model loaded

ACModel(
  (image_conv): Sequential(
    (0): Conv2d(3, 32, kernel_size=(12, 12), stride=(6, 6))
    (1): ReLU()
    (2): Conv2d(32, 64, kernel_size=(9, 9), stride=(4, 4))
    (3): ReLU()
    (4): Conv2d(64, 128, kernel_size=(3, 3), stride=(2, 2))
    (5): ReLU()
    (6): Conv2d(128, 256, kernel_size=(3, 3), stride=(1, 1))
    (7): ReLU()
  )
  (actor): Sequential(
    (0): Linear(in_features=2304, out_features=512, bias=True)
    (1): ReLU()
    (2): Linear(in_features=512, out_features=64, bias=True)
    (3): ReLU()
    (4): Linear(in_features=64, out_features=7, bias=True)
  )
  (critic): Sequential(
    (0): Linear(in_features=2304, out_features=512, bias=True)
    (1): ReLU()
    (2): Linear(in_features=512, out_features=64, bias=True)
    (3): ReLU()
    (4): Linear(in_features=64, out_features=1, bias=True)
  )
)

Optimizer loaded

discover.py --task-config task1 --discover 1 --algo ppo --env MiniGrid-ConfigWorld-v0-havekey --lr 0.0002 --AnomalyNN test_8 --model 20240725-seed1 --discount 0.99

Namespace(task_config='task1', discover=1, algo='ppo', env='MiniGrid-ConfigWorld-v0-havekey', model='20240725-seed1', seed=1, log_interval=1, save_interval=10, procs=1, frames=10000000, AnomalyNN='test_8', epochs=32, batch_size=128, frames_per_proc=256, discount=0.99, lr=0.0002, gae_lambda=0.95, entropy_coef=0.01, value_loss_coef=0.5, max_grad_norm=0.5, optim_eps=1e-08, optim_alpha=0.99, clip_eps=0.2, recurrence=1, text=False, buffer_size=10000, target_update=10)

Device: cuda

Environments loaded

Training status loaded

Observations preprocessor loaded
Model loaded

ACModel(
  (image_conv): Sequential(
    (0): Conv2d(3, 32, kernel_size=(12, 12), stride=(6, 6))
    (1): ReLU()
    (2): Conv2d(32, 64, kernel_size=(9, 9), stride=(4, 4))
    (3): ReLU()
    (4): Conv2d(64, 128, kernel_size=(3, 3), stride=(2, 2))
    (5): ReLU()
    (6): Conv2d(128, 256, kernel_size=(3, 3), stride=(1, 1))
    (7): ReLU()
  )
  (actor): Sequential(
    (0): Linear(in_features=2304, out_features=512, bias=True)
    (1): ReLU()
    (2): Linear(in_features=512, out_features=64, bias=True)
    (3): ReLU()
    (4): Linear(in_features=64, out_features=7, bias=True)
  )
  (critic): Sequential(
    (0): Linear(in_features=2304, out_features=512, bias=True)
    (1): ReLU()
    (2): Linear(in_features=512, out_features=64, bias=True)
    (3): ReLU()
    (4): Linear(in_features=64, out_features=1, bias=True)
  )
)

Optimizer loaded

discover.py --task-config task1 --discover 1 --algo ppo --env MiniGrid-ConfigWorld-v0-havekey --lr 0.0002 --AnomalyNN test_8 --model 20240725-seed1 --discount 0.99

Namespace(task_config='task1', discover=1, algo='ppo', env='MiniGrid-ConfigWorld-v0-havekey', model='20240725-seed1', seed=1, log_interval=1, save_interval=10, procs=1, frames=10000000, AnomalyNN='test_8', epochs=32, batch_size=128, frames_per_proc=256, discount=0.99, lr=0.0002, gae_lambda=0.95, entropy_coef=0.01, value_loss_coef=0.5, max_grad_norm=0.5, optim_eps=1e-08, optim_alpha=0.99, clip_eps=0.2, recurrence=1, text=False, buffer_size=10000, target_update=10)

Device: cuda

Environments loaded

Training status loaded

Observations preprocessor loaded
Model loaded

ACModel(
  (image_conv): Sequential(
    (0): Conv2d(3, 32, kernel_size=(12, 12), stride=(6, 6))
    (1): ReLU()
    (2): Conv2d(32, 64, kernel_size=(9, 9), stride=(4, 4))
    (3): ReLU()
    (4): Conv2d(64, 128, kernel_size=(3, 3), stride=(2, 2))
    (5): ReLU()
    (6): Conv2d(128, 256, kernel_size=(3, 3), stride=(1, 1))
    (7): ReLU()
  )
  (actor): Sequential(
    (0): Linear(in_features=2304, out_features=512, bias=True)
    (1): ReLU()
    (2): Linear(in_features=512, out_features=64, bias=True)
    (3): ReLU()
    (4): Linear(in_features=64, out_features=7, bias=True)
  )
  (critic): Sequential(
    (0): Linear(in_features=2304, out_features=512, bias=True)
    (1): ReLU()
    (2): Linear(in_features=512, out_features=64, bias=True)
    (3): ReLU()
    (4): Linear(in_features=64, out_features=1, bias=True)
  )
)

Optimizer loaded

discover.py --task-config task1 --discover 1 --algo ppo --env MiniGrid-ConfigWorld-v0-havekey --lr 0.0002 --AnomalyNN test_8 --model 20240725-seed1 --discount 0.99

Namespace(task_config='task1', discover=1, algo='ppo', env='MiniGrid-ConfigWorld-v0-havekey', model='20240725-seed1', seed=1, log_interval=1, save_interval=10, procs=1, frames=10000000, AnomalyNN='test_8', epochs=32, batch_size=128, frames_per_proc=256, discount=0.99, lr=0.0002, gae_lambda=0.95, entropy_coef=0.01, value_loss_coef=0.5, max_grad_norm=0.5, optim_eps=1e-08, optim_alpha=0.99, clip_eps=0.2, recurrence=1, text=False, buffer_size=10000, target_update=10)

Device: cuda

Environments loaded

Training status loaded

Observations preprocessor loaded
Model loaded

ACModel(
  (image_conv): Sequential(
    (0): Conv2d(3, 32, kernel_size=(12, 12), stride=(6, 6))
    (1): ReLU()
    (2): Conv2d(32, 64, kernel_size=(9, 9), stride=(4, 4))
    (3): ReLU()
    (4): Conv2d(64, 128, kernel_size=(3, 3), stride=(2, 2))
    (5): ReLU()
    (6): Conv2d(128, 256, kernel_size=(3, 3), stride=(1, 1))
    (7): ReLU()
  )
  (actor): Sequential(
    (0): Linear(in_features=2304, out_features=512, bias=True)
    (1): ReLU()
    (2): Linear(in_features=512, out_features=64, bias=True)
    (3): ReLU()
    (4): Linear(in_features=64, out_features=7, bias=True)
  )
  (critic): Sequential(
    (0): Linear(in_features=2304, out_features=512, bias=True)
    (1): ReLU()
    (2): Linear(in_features=512, out_features=64, bias=True)
    (3): ReLU()
    (4): Linear(in_features=64, out_features=1, bias=True)
  )
)

Optimizer loaded

discover.py --task-config task1 --discover 1 --algo ppo --env MiniGrid-ConfigWorld-v0-havekey --lr 0.0002 --AnomalyNN test_8 --model 20240725-seed1 --discount 0.99

Namespace(task_config='task1', discover=1, algo='ppo', env='MiniGrid-ConfigWorld-v0-havekey', model='20240725-seed1', seed=1, log_interval=1, save_interval=10, procs=1, frames=10000000, AnomalyNN='test_8', epochs=32, batch_size=128, frames_per_proc=256, discount=0.99, lr=0.0002, gae_lambda=0.95, entropy_coef=0.01, value_loss_coef=0.5, max_grad_norm=0.5, optim_eps=1e-08, optim_alpha=0.99, clip_eps=0.2, recurrence=1, text=False, buffer_size=10000, target_update=10)

Device: cuda

Environments loaded

Training status loaded

Observations preprocessor loaded
Model loaded

ACModel(
  (image_conv): Sequential(
    (0): Conv2d(3, 32, kernel_size=(12, 12), stride=(6, 6))
    (1): ReLU()
    (2): Conv2d(32, 64, kernel_size=(9, 9), stride=(4, 4))
    (3): ReLU()
    (4): Conv2d(64, 128, kernel_size=(3, 3), stride=(2, 2))
    (5): ReLU()
    (6): Conv2d(128, 256, kernel_size=(3, 3), stride=(1, 1))
    (7): ReLU()
  )
  (actor): Sequential(
    (0): Linear(in_features=2304, out_features=512, bias=True)
    (1): ReLU()
    (2): Linear(in_features=512, out_features=64, bias=True)
    (3): ReLU()
    (4): Linear(in_features=64, out_features=7, bias=True)
  )
  (critic): Sequential(
    (0): Linear(in_features=2304, out_features=512, bias=True)
    (1): ReLU()
    (2): Linear(in_features=512, out_features=64, bias=True)
    (3): ReLU()
    (4): Linear(in_features=64, out_features=1, bias=True)
  )
)

Optimizer loaded

discover.py --task-config task1 --discover 1 --algo ppo --env MiniGrid-ConfigWorld-v0-havekey --lr 0.0002 --AnomalyNN test_8 --model 20240725-seed1 --discount 0.99

Namespace(task_config='task1', discover=1, algo='ppo', env='MiniGrid-ConfigWorld-v0-havekey', model='20240725-seed1', seed=1, log_interval=1, save_interval=10, procs=1, frames=10000000, AnomalyNN='test_8', epochs=32, batch_size=128, frames_per_proc=256, discount=0.99, lr=0.0002, gae_lambda=0.95, entropy_coef=0.01, value_loss_coef=0.5, max_grad_norm=0.5, optim_eps=1e-08, optim_alpha=0.99, clip_eps=0.2, recurrence=1, text=False, buffer_size=10000, target_update=10)

Device: cuda

Environments loaded

Training status loaded

Observations preprocessor loaded
Model loaded

ACModel(
  (image_conv): Sequential(
    (0): Conv2d(3, 32, kernel_size=(12, 12), stride=(6, 6))
    (1): ReLU()
    (2): Conv2d(32, 64, kernel_size=(9, 9), stride=(4, 4))
    (3): ReLU()
    (4): Conv2d(64, 128, kernel_size=(3, 3), stride=(2, 2))
    (5): ReLU()
    (6): Conv2d(128, 256, kernel_size=(3, 3), stride=(1, 1))
    (7): ReLU()
  )
  (actor): Sequential(
    (0): Linear(in_features=2304, out_features=512, bias=True)
    (1): ReLU()
    (2): Linear(in_features=512, out_features=64, bias=True)
    (3): ReLU()
    (4): Linear(in_features=64, out_features=7, bias=True)
  )
  (critic): Sequential(
    (0): Linear(in_features=2304, out_features=512, bias=True)
    (1): ReLU()
    (2): Linear(in_features=512, out_features=64, bias=True)
    (3): ReLU()
    (4): Linear(in_features=64, out_features=1, bias=True)
  )
)

Optimizer loaded

discover.py --task-config task1 --discover 1 --algo ppo --env MiniGrid-ConfigWorld-v0-havekey --lr 0.0002 --AnomalyNN test_8 --model 20240725-seed1 --discount 0.99

Namespace(task_config='task1', discover=1, algo='ppo', env='MiniGrid-ConfigWorld-v0-havekey', model='20240725-seed1', seed=1, log_interval=1, save_interval=10, procs=1, frames=10000000, AnomalyNN='test_8', epochs=32, batch_size=128, frames_per_proc=256, discount=0.99, lr=0.0002, gae_lambda=0.95, entropy_coef=0.01, value_loss_coef=0.5, max_grad_norm=0.5, optim_eps=1e-08, optim_alpha=0.99, clip_eps=0.2, recurrence=1, text=False, buffer_size=10000, target_update=10)

Device: cuda

Environments loaded

Training status loaded

Observations preprocessor loaded
Model loaded

ACModel(
  (image_conv): Sequential(
    (0): Conv2d(3, 32, kernel_size=(12, 12), stride=(6, 6))
    (1): ReLU()
    (2): Conv2d(32, 64, kernel_size=(9, 9), stride=(4, 4))
    (3): ReLU()
    (4): Conv2d(64, 128, kernel_size=(3, 3), stride=(2, 2))
    (5): ReLU()
    (6): Conv2d(128, 256, kernel_size=(3, 3), stride=(1, 1))
    (7): ReLU()
  )
  (actor): Sequential(
    (0): Linear(in_features=2304, out_features=512, bias=True)
    (1): ReLU()
    (2): Linear(in_features=512, out_features=64, bias=True)
    (3): ReLU()
    (4): Linear(in_features=64, out_features=7, bias=True)
  )
  (critic): Sequential(
    (0): Linear(in_features=2304, out_features=512, bias=True)
    (1): ReLU()
    (2): Linear(in_features=512, out_features=64, bias=True)
    (3): ReLU()
    (4): Linear(in_features=64, out_features=1, bias=True)
  )
)

Optimizer loaded

discover.py --task-config task1 --discover 1 --algo ppo --env MiniGrid-ConfigWorld-v0-havekey --lr 0.0002 --AnomalyNN test_8 --model 20240725-seed1 --discount 0.99

Namespace(task_config='task1', discover=1, algo='ppo', env='MiniGrid-ConfigWorld-v0-havekey', model='20240725-seed1', seed=1, log_interval=1, save_interval=10, procs=1, frames=10000000, AnomalyNN='test_8', epochs=32, batch_size=128, frames_per_proc=256, discount=0.99, lr=0.0002, gae_lambda=0.95, entropy_coef=0.01, value_loss_coef=0.5, max_grad_norm=0.5, optim_eps=1e-08, optim_alpha=0.99, clip_eps=0.2, recurrence=1, text=False, buffer_size=10000, target_update=10)

Device: cuda

Environments loaded

Training status loaded

Observations preprocessor loaded
Model loaded

ACModel(
  (image_conv): Sequential(
    (0): Conv2d(3, 32, kernel_size=(12, 12), stride=(6, 6))
    (1): ReLU()
    (2): Conv2d(32, 64, kernel_size=(9, 9), stride=(4, 4))
    (3): ReLU()
    (4): Conv2d(64, 128, kernel_size=(3, 3), stride=(2, 2))
    (5): ReLU()
    (6): Conv2d(128, 256, kernel_size=(3, 3), stride=(1, 1))
    (7): ReLU()
  )
  (actor): Sequential(
    (0): Linear(in_features=2304, out_features=512, bias=True)
    (1): ReLU()
    (2): Linear(in_features=512, out_features=64, bias=True)
    (3): ReLU()
    (4): Linear(in_features=64, out_features=7, bias=True)
  )
  (critic): Sequential(
    (0): Linear(in_features=2304, out_features=512, bias=True)
    (1): ReLU()
    (2): Linear(in_features=512, out_features=64, bias=True)
    (3): ReLU()
    (4): Linear(in_features=64, out_features=1, bias=True)
  )
)

Optimizer loaded

U 51 | F 013056 | FPS 0049 | D 5 | Reward:μσmM -0.91 0.29 -1.00 0.00 | policy_loss ['None', 'None', '0.465', 'None'] | value_loss ['None', 'None', '0.279', 'None']
discover.py --task-config task1 --discover 1 --algo ppo --env MiniGrid-ConfigWorld-v0-havekey --lr 0.0002 --AnomalyNN test_8 --model 20240725-seed1 --discount 0.99

Namespace(task_config='task1', discover=1, algo='ppo', env='MiniGrid-ConfigWorld-v0-havekey', model='20240725-seed1', seed=1, log_interval=1, save_interval=10, procs=1, frames=10000000, AnomalyNN='test_8', epochs=32, batch_size=128, frames_per_proc=256, discount=0.99, lr=0.0002, gae_lambda=0.95, entropy_coef=0.01, value_loss_coef=0.5, max_grad_norm=0.5, optim_eps=1e-08, optim_alpha=0.99, clip_eps=0.2, recurrence=1, text=False, buffer_size=10000, target_update=10)

Device: cuda

Environments loaded

Training status loaded

Observations preprocessor loaded
Model loaded

ACModel(
  (image_conv): Sequential(
    (0): Conv2d(3, 32, kernel_size=(12, 12), stride=(6, 6))
    (1): ReLU()
    (2): Conv2d(32, 64, kernel_size=(9, 9), stride=(4, 4))
    (3): ReLU()
    (4): Conv2d(64, 128, kernel_size=(3, 3), stride=(2, 2))
    (5): ReLU()
    (6): Conv2d(128, 256, kernel_size=(3, 3), stride=(1, 1))
    (7): ReLU()
  )
  (actor): Sequential(
    (0): Linear(in_features=2304, out_features=512, bias=True)
    (1): ReLU()
    (2): Linear(in_features=512, out_features=64, bias=True)
    (3): ReLU()
    (4): Linear(in_features=64, out_features=7, bias=True)
  )
  (critic): Sequential(
    (0): Linear(in_features=2304, out_features=512, bias=True)
    (1): ReLU()
    (2): Linear(in_features=512, out_features=64, bias=True)
    (3): ReLU()
    (4): Linear(in_features=64, out_features=1, bias=True)
  )
)

Optimizer loaded

discover.py --task-config task1 --discover 1 --algo ppo --env MiniGrid-ConfigWorld-v0-havekey --lr 0.0002 --AnomalyNN test_8 --model 20240725-seed1 --discount 0.99

Namespace(task_config='task1', discover=1, algo='ppo', env='MiniGrid-ConfigWorld-v0-havekey', model='20240725-seed1', seed=1, log_interval=1, save_interval=10, procs=1, frames=10000000, AnomalyNN='test_8', epochs=32, batch_size=128, frames_per_proc=256, discount=0.99, lr=0.0002, gae_lambda=0.95, entropy_coef=0.01, value_loss_coef=0.5, max_grad_norm=0.5, optim_eps=1e-08, optim_alpha=0.99, clip_eps=0.2, recurrence=1, text=False, buffer_size=10000, target_update=10)

Device: cuda

Environments loaded

Training status loaded

Observations preprocessor loaded
Model loaded

ACModel(
  (image_conv): Sequential(
    (0): Conv2d(3, 32, kernel_size=(12, 12), stride=(6, 6))
    (1): ReLU()
    (2): Conv2d(32, 64, kernel_size=(9, 9), stride=(4, 4))
    (3): ReLU()
    (4): Conv2d(64, 128, kernel_size=(3, 3), stride=(2, 2))
    (5): ReLU()
    (6): Conv2d(128, 256, kernel_size=(3, 3), stride=(1, 1))
    (7): ReLU()
  )
  (actor): Sequential(
    (0): Linear(in_features=2304, out_features=512, bias=True)
    (1): ReLU()
    (2): Linear(in_features=512, out_features=64, bias=True)
    (3): ReLU()
    (4): Linear(in_features=64, out_features=7, bias=True)
  )
  (critic): Sequential(
    (0): Linear(in_features=2304, out_features=512, bias=True)
    (1): ReLU()
    (2): Linear(in_features=512, out_features=64, bias=True)
    (3): ReLU()
    (4): Linear(in_features=64, out_features=1, bias=True)
  )
)

Optimizer loaded

discover.py --task-config task1 --discover 1 --algo ppo --env MiniGrid-ConfigWorld-v0-havekey --lr 0.0002 --AnomalyNN test_8 --model 20240725-seed1 --discount 0.99

Namespace(task_config='task1', discover=1, algo='ppo', env='MiniGrid-ConfigWorld-v0-havekey', model='20240725-seed1', seed=1, log_interval=1, save_interval=10, procs=1, frames=10000000, AnomalyNN='test_8', epochs=32, batch_size=128, frames_per_proc=256, discount=0.99, lr=0.0002, gae_lambda=0.95, entropy_coef=0.01, value_loss_coef=0.5, max_grad_norm=0.5, optim_eps=1e-08, optim_alpha=0.99, clip_eps=0.2, recurrence=1, text=False, buffer_size=10000, target_update=10)

Device: cuda

Environments loaded

Training status loaded

Observations preprocessor loaded
Model loaded

ACModel(
  (image_conv): Sequential(
    (0): Conv2d(3, 32, kernel_size=(12, 12), stride=(6, 6))
    (1): ReLU()
    (2): Conv2d(32, 64, kernel_size=(9, 9), stride=(4, 4))
    (3): ReLU()
    (4): Conv2d(64, 128, kernel_size=(3, 3), stride=(2, 2))
    (5): ReLU()
    (6): Conv2d(128, 256, kernel_size=(3, 3), stride=(1, 1))
    (7): ReLU()
  )
  (actor): Sequential(
    (0): Linear(in_features=2304, out_features=512, bias=True)
    (1): ReLU()
    (2): Linear(in_features=512, out_features=64, bias=True)
    (3): ReLU()
    (4): Linear(in_features=64, out_features=7, bias=True)
  )
  (critic): Sequential(
    (0): Linear(in_features=2304, out_features=512, bias=True)
    (1): ReLU()
    (2): Linear(in_features=512, out_features=64, bias=True)
    (3): ReLU()
    (4): Linear(in_features=64, out_features=1, bias=True)
  )
)

Optimizer loaded

discover.py --task-config task1 --discover 1 --algo ppo --env MiniGrid-ConfigWorld-v0-havekey --lr 0.0002 --AnomalyNN test_8 --model 20240725-seed1 --discount 0.99

Namespace(task_config='task1', discover=1, algo='ppo', env='MiniGrid-ConfigWorld-v0-havekey', model='20240725-seed1', seed=1, log_interval=1, save_interval=10, procs=1, frames=10000000, AnomalyNN='test_8', epochs=32, batch_size=128, frames_per_proc=256, discount=0.99, lr=0.0002, gae_lambda=0.95, entropy_coef=0.01, value_loss_coef=0.5, max_grad_norm=0.5, optim_eps=1e-08, optim_alpha=0.99, clip_eps=0.2, recurrence=1, text=False, buffer_size=10000, target_update=10)

Device: cuda

Environments loaded

Training status loaded

Observations preprocessor loaded
Model loaded

ACModel(
  (image_conv): Sequential(
    (0): Conv2d(3, 32, kernel_size=(12, 12), stride=(6, 6))
    (1): ReLU()
    (2): Conv2d(32, 64, kernel_size=(9, 9), stride=(4, 4))
    (3): ReLU()
    (4): Conv2d(64, 128, kernel_size=(3, 3), stride=(2, 2))
    (5): ReLU()
    (6): Conv2d(128, 256, kernel_size=(3, 3), stride=(1, 1))
    (7): ReLU()
  )
  (actor): Sequential(
    (0): Linear(in_features=2304, out_features=512, bias=True)
    (1): ReLU()
    (2): Linear(in_features=512, out_features=64, bias=True)
    (3): ReLU()
    (4): Linear(in_features=64, out_features=7, bias=True)
  )
  (critic): Sequential(
    (0): Linear(in_features=2304, out_features=512, bias=True)
    (1): ReLU()
    (2): Linear(in_features=512, out_features=64, bias=True)
    (3): ReLU()
    (4): Linear(in_features=64, out_features=1, bias=True)
  )
)

Optimizer loaded

U 51 | F 013056 | FPS 0048 | D 5 | Reward:μσmM -0.91 0.29 -1.00 0.00 | policy_loss ['None', 'None', '0.495', 'None'] | value_loss ['None', 'None', '0.316', 'None']
discover.py --task-config task1 --discover 1 --algo ppo --env MiniGrid-ConfigWorld-v0-havekey --lr 0.0002 --AnomalyNN test_8 --model 20240725-seed1 --discount 0.99

Namespace(task_config='task1', discover=1, algo='ppo', env='MiniGrid-ConfigWorld-v0-havekey', model='20240725-seed1', seed=1, log_interval=1, save_interval=10, procs=1, frames=10000000, AnomalyNN='test_8', epochs=32, batch_size=128, frames_per_proc=256, discount=0.99, lr=0.0002, gae_lambda=0.95, entropy_coef=0.01, value_loss_coef=0.5, max_grad_norm=0.5, optim_eps=1e-08, optim_alpha=0.99, clip_eps=0.2, recurrence=1, text=False, buffer_size=10000, target_update=10)

Device: cuda

Environments loaded

Training status loaded

Observations preprocessor loaded
Model loaded

ACModel(
  (image_conv): Sequential(
    (0): Conv2d(3, 32, kernel_size=(12, 12), stride=(6, 6))
    (1): ReLU()
    (2): Conv2d(32, 64, kernel_size=(9, 9), stride=(4, 4))
    (3): ReLU()
    (4): Conv2d(64, 128, kernel_size=(3, 3), stride=(2, 2))
    (5): ReLU()
    (6): Conv2d(128, 256, kernel_size=(3, 3), stride=(1, 1))
    (7): ReLU()
  )
  (actor): Sequential(
    (0): Linear(in_features=2304, out_features=512, bias=True)
    (1): ReLU()
    (2): Linear(in_features=512, out_features=64, bias=True)
    (3): ReLU()
    (4): Linear(in_features=64, out_features=7, bias=True)
  )
  (critic): Sequential(
    (0): Linear(in_features=2304, out_features=512, bias=True)
    (1): ReLU()
    (2): Linear(in_features=512, out_features=64, bias=True)
    (3): ReLU()
    (4): Linear(in_features=64, out_features=1, bias=True)
  )
)

Optimizer loaded

discover.py --task-config task1 --discover 1 --algo ppo --env MiniGrid-ConfigWorld-v0-havekey --lr 0.0002 --AnomalyNN test_8 --model 20240725-seed1 --discount 0.99

Namespace(task_config='task1', discover=1, algo='ppo', env='MiniGrid-ConfigWorld-v0-havekey', model='20240725-seed1', seed=1, log_interval=1, save_interval=10, procs=1, frames=10000000, AnomalyNN='test_8', epochs=32, batch_size=128, frames_per_proc=256, discount=0.99, lr=0.0002, gae_lambda=0.95, entropy_coef=0.01, value_loss_coef=0.5, max_grad_norm=0.5, optim_eps=1e-08, optim_alpha=0.99, clip_eps=0.2, recurrence=1, text=False, buffer_size=10000, target_update=10)

Device: cuda

Environments loaded

Training status loaded

Observations preprocessor loaded
Model loaded

ACModel(
  (image_conv): Sequential(
    (0): Conv2d(3, 32, kernel_size=(12, 12), stride=(6, 6))
    (1): ReLU()
    (2): Conv2d(32, 64, kernel_size=(9, 9), stride=(4, 4))
    (3): ReLU()
    (4): Conv2d(64, 128, kernel_size=(3, 3), stride=(2, 2))
    (5): ReLU()
    (6): Conv2d(128, 256, kernel_size=(3, 3), stride=(1, 1))
    (7): ReLU()
  )
  (actor): Sequential(
    (0): Linear(in_features=2304, out_features=512, bias=True)
    (1): ReLU()
    (2): Linear(in_features=512, out_features=64, bias=True)
    (3): ReLU()
    (4): Linear(in_features=64, out_features=7, bias=True)
  )
  (critic): Sequential(
    (0): Linear(in_features=2304, out_features=512, bias=True)
    (1): ReLU()
    (2): Linear(in_features=512, out_features=64, bias=True)
    (3): ReLU()
    (4): Linear(in_features=64, out_features=1, bias=True)
  )
)

Optimizer loaded

U 51 | F 013056 | FPS 0059 | D 4 | Reward:μσmM 0.33 1.89 -1.00 3.00 | policy_loss ['None', 'None', '-0.194', 'None'] | value_loss ['None', 'None', '0.575', 'None']
U 52 | F 013312 | FPS 0055 | D 8 | Reward:μσmM -0.83 0.37 -1.00 0.00 | policy_loss ['None', 'None', '0.257', 'None'] | value_loss ['None', 'None', '0.137', 'None']
U 53 | F 013568 | FPS 0056 | D 13 | Reward:μσmM -0.67 0.47 -1.00 0.00 | policy_loss ['None', 'None', '0.118', 'None'] | value_loss ['None', 'None', '0.088', 'None']
…
Namespace(task_config='task1', discover=1, algo='ppo', env='MiniGrid-ConfigWorld-v0-havekey', model='20240725-seed1', seed=1, log_interval=1, save_interval=10, procs=1, frames=10000000, AnomalyNN='test_8', epochs=32, batch_size=128, frames_per_proc=256, discount=0.99, lr=0.0002, gae_lambda=0.95, entropy_coef=0.01, value_loss_coef=0.5, max_grad_norm=0.5, optim_eps=1e-08, optim_alpha=0.99, clip_eps=0.2, recurrence=1, text=False, buffer_size=10000, target_update=10)

Device: cuda

Environments loaded

Training status loaded

Observations preprocessor loaded
Model loaded

ACModel(
  (image_conv): Sequential(
    (0): Conv2d(3, 32, kernel_size=(12, 12), stride=(6, 6))
    (1): ReLU()
    (2): Conv2d(32, 64, kernel_size=(9, 9), stride=(4, 4))
    (3): ReLU()
    (4): Conv2d(64, 128, kernel_size=(3, 3), stride=(2, 2))
    (5): ReLU()
    (6): Conv2d(128, 256, kernel_size=(3, 3), stride=(1, 1))
    (7): ReLU()
  )
  (actor): Sequential(
    (0): Linear(in_features=2304, out_features=512, bias=True)
    (1): ReLU()
    (2): Linear(in_features=512, out_features=64, bias=True)
    (3): ReLU()
    (4): Linear(in_features=64, out_features=7, bias=True)
  )
  (critic): Sequential(
    (0): Linear(in_features=2304, out_features=512, bias=True)
    (1): ReLU()
    (2): Linear(in_features=512, out_features=64, bias=True)
    (3): ReLU()
    (4): Linear(in_features=64, out_features=1, bias=True)
  )
)

Optimizer loaded

discover.py --task-config task1 --discover 1 --algo ppo --env MiniGrid-ConfigWorld-v0-havekey --lr 0.0002 --AnomalyNN test_8 --model 20240725-seed1 --discount 0.99

Namespace(task_config='task1', discover=1, algo='ppo', env='MiniGrid-ConfigWorld-v0-havekey', model='20240725-seed1', seed=1, log_interval=1, save_interval=10, procs=1, frames=10000000, AnomalyNN='test_8', epochs=32, batch_size=128, frames_per_proc=256, discount=0.99, lr=0.0002, gae_lambda=0.95, entropy_coef=0.01, value_loss_coef=0.5, max_grad_norm=0.5, optim_eps=1e-08, optim_alpha=0.99, clip_eps=0.2, recurrence=1, text=False, buffer_size=10000, target_update=10)

Device: cuda

Environments loaded

Training status loaded

Observations preprocessor loaded
Model loaded

ACModel(
  (image_conv): Sequential(
    (0): Conv2d(3, 32, kernel_size=(12, 12), stride=(6, 6))
    (1): ReLU()
    (2): Conv2d(32, 64, kernel_size=(9, 9), stride=(4, 4))
    (3): ReLU()
    (4): Conv2d(64, 128, kernel_size=(3, 3), stride=(2, 2))
    (5): ReLU()
    (6): Conv2d(128, 256, kernel_size=(3, 3), stride=(1, 1))
    (7): ReLU()
  )
  (actor): Sequential(
    (0): Linear(in_features=2304, out_features=512, bias=True)
    (1): ReLU()
    (2): Linear(in_features=512, out_features=64, bias=True)
    (3): ReLU()
    (4): Linear(in_features=64, out_features=7, bias=True)
  )
  (critic): Sequential(
    (0): Linear(in_features=2304, out_features=512, bias=True)
    (1): ReLU()
    (2): Linear(in_features=512, out_features=64, bias=True)
    (3): ReLU()
    (4): Linear(in_features=64, out_features=1, bias=True)
  )
)

Optimizer loaded

discover.py --task-config task1 --discover 1 --algo ppo --env MiniGrid-ConfigWorld-v0-havekey --lr 0.0002 --AnomalyNN test_8 --model 20240725-seed1 --discount 0.99

Namespace(task_config='task1', discover=1, algo='ppo', env='MiniGrid-ConfigWorld-v0-havekey', model='20240725-seed1', seed=1, log_interval=1, save_interval=10, procs=1, frames=10000000, AnomalyNN='test_8', epochs=32, batch_size=128, frames_per_proc=256, discount=0.99, lr=0.0002, gae_lambda=0.95, entropy_coef=0.01, value_loss_coef=0.5, max_grad_norm=0.5, optim_eps=1e-08, optim_alpha=0.99, clip_eps=0.2, recurrence=1, text=False, buffer_size=10000, target_update=10)

Device: cuda

Environments loaded

Training status loaded

Observations preprocessor loaded
Model loaded

ACModel(
  (image_conv): Sequential(
    (0): Conv2d(3, 32, kernel_size=(12, 12), stride=(6, 6))
    (1): ReLU()
    (2): Conv2d(32, 64, kernel_size=(9, 9), stride=(4, 4))
    (3): ReLU()
    (4): Conv2d(64, 128, kernel_size=(3, 3), stride=(2, 2))
    (5): ReLU()
    (6): Conv2d(128, 256, kernel_size=(3, 3), stride=(1, 1))
    (7): ReLU()
  )
  (actor): Sequential(
    (0): Linear(in_features=2304, out_features=512, bias=True)
    (1): ReLU()
    (2): Linear(in_features=512, out_features=64, bias=True)
    (3): ReLU()
    (4): Linear(in_features=64, out_features=7, bias=True)
  )
  (critic): Sequential(
    (0): Linear(in_features=2304, out_features=512, bias=True)
    (1): ReLU()
    (2): Linear(in_features=512, out_features=64, bias=True)
    (3): ReLU()
    (4): Linear(in_features=64, out_features=1, bias=True)
  )
)

Optimizer loaded

U 51 | F 013056 | FPS 0051 | D 5 | Reward:μσmM 1.00 2.00 -1.00 3.00 | policy_loss ['None', 'None', '-0.302', 'None'] | value_loss ['None', 'None', '0.431', 'None']
U 52 | F 013312 | FPS 0055 | D 9 | Reward:μσmM -0.20 1.60 -1.00 3.00 | policy_loss ['None', 'None', '-0.029', 'None'] | value_loss ['None', 'None', '0.377', 'None']
U 53 | F 013568 | FPS 0057 | D 14 | Reward:μσmM -0.75 0.43 -1.00 0.00 | policy_loss ['None', 'None', '0.160', 'None'] | value_loss ['None', 'None', '0.088', 'None']
…
Namespace(task_config='task1', discover=1, algo='ppo', env='MiniGrid-ConfigWorld-v0-havekey', model='20240725-seed1', seed=1, log_interval=1, save_interval=10, procs=1, frames=10000000, AnomalyNN='test_8', epochs=32, batch_size=128, frames_per_proc=256, discount=0.99, lr=0.0002, gae_lambda=0.95, entropy_coef=0.01, value_loss_coef=0.5, max_grad_norm=0.5, optim_eps=1e-08, optim_alpha=0.99, clip_eps=0.2, recurrence=1, text=False, buffer_size=10000, target_update=10)

Device: cuda

Environments loaded

Training status loaded

Observations preprocessor loaded
Model loaded

ACModel(
  (image_conv): Sequential(
    (0): Conv2d(3, 32, kernel_size=(12, 12), stride=(6, 6))
    (1): ReLU()
    (2): Conv2d(32, 64, kernel_size=(9, 9), stride=(4, 4))
    (3): ReLU()
    (4): Conv2d(64, 128, kernel_size=(3, 3), stride=(2, 2))
    (5): ReLU()
    (6): Conv2d(128, 256, kernel_size=(3, 3), stride=(1, 1))
    (7): ReLU()
  )
  (actor): Sequential(
    (0): Linear(in_features=2304, out_features=512, bias=True)
    (1): ReLU()
    (2): Linear(in_features=512, out_features=64, bias=True)
    (3): ReLU()
    (4): Linear(in_features=64, out_features=7, bias=True)
  )
  (critic): Sequential(
    (0): Linear(in_features=2304, out_features=512, bias=True)
    (1): ReLU()
    (2): Linear(in_features=512, out_features=64, bias=True)
    (3): ReLU()
    (4): Linear(in_features=64, out_features=1, bias=True)
  )
)

Optimizer loaded

discover.py --task-config task1 --discover 1 --algo ppo --env MiniGrid-ConfigWorld-v0-havekey --lr 0.0002 --AnomalyNN test_8 --model 20240725-seed1 --discount 0.99 --seed 42

Namespace(task_config='task1', discover=1, algo='ppo', env='MiniGrid-ConfigWorld-v0-havekey', model='20240725-seed1', seed=42, log_interval=1, save_interval=10, procs=1, frames=10000000, AnomalyNN='test_8', epochs=32, batch_size=128, frames_per_proc=256, discount=0.99, lr=0.0002, gae_lambda=0.95, entropy_coef=0.01, value_loss_coef=0.5, max_grad_norm=0.5, optim_eps=1e-08, optim_alpha=0.99, clip_eps=0.2, recurrence=1, text=False, buffer_size=10000, target_update=10)

Device: cuda

Environments loaded

Training status loaded

Observations preprocessor loaded
Model loaded

ACModel(
  (image_conv): Sequential(
    (0): Conv2d(3, 32, kernel_size=(12, 12), stride=(6, 6))
    (1): ReLU()
    (2): Conv2d(32, 64, kernel_size=(9, 9), stride=(4, 4))
    (3): ReLU()
    (4): Conv2d(64, 128, kernel_size=(3, 3), stride=(2, 2))
    (5): ReLU()
    (6): Conv2d(128, 256, kernel_size=(3, 3), stride=(1, 1))
    (7): ReLU()
  )
  (actor): Sequential(
    (0): Linear(in_features=2304, out_features=512, bias=True)
    (1): ReLU()
    (2): Linear(in_features=512, out_features=64, bias=True)
    (3): ReLU()
    (4): Linear(in_features=64, out_features=7, bias=True)
  )
  (critic): Sequential(
    (0): Linear(in_features=2304, out_features=512, bias=True)
    (1): ReLU()
    (2): Linear(in_features=512, out_features=64, bias=True)
    (3): ReLU()
    (4): Linear(in_features=64, out_features=1, bias=True)
  )
)

Optimizer loaded

discover.py --task-config task1 --discover 1 --algo ppo --env MiniGrid-ConfigWorld-v0-havekey --lr 0.0002 --AnomalyNN test_8 --model 20240725-seed1 --discount 0.99

Namespace(task_config='task1', discover=1, algo='ppo', env='MiniGrid-ConfigWorld-v0-havekey', model='20240725-seed1', seed=1, log_interval=1, save_interval=10, procs=1, frames=10000000, AnomalyNN='test_8', epochs=32, batch_size=128, frames_per_proc=256, discount=0.99, lr=0.0002, gae_lambda=0.95, entropy_coef=0.01, value_loss_coef=0.5, max_grad_norm=0.5, optim_eps=1e-08, optim_alpha=0.99, clip_eps=0.2, recurrence=1, text=False, buffer_size=10000, target_update=10)

Device: cuda

Environments loaded

Training status loaded

Observations preprocessor loaded
Model loaded

ACModel(
  (image_conv): Sequential(
    (0): Conv2d(3, 32, kernel_size=(12, 12), stride=(6, 6))
    (1): ReLU()
    (2): Conv2d(32, 64, kernel_size=(9, 9), stride=(4, 4))
    (3): ReLU()
    (4): Conv2d(64, 128, kernel_size=(3, 3), stride=(2, 2))
    (5): ReLU()
    (6): Conv2d(128, 256, kernel_size=(3, 3), stride=(1, 1))
    (7): ReLU()
  )
  (actor): Sequential(
    (0): Linear(in_features=2304, out_features=512, bias=True)
    (1): ReLU()
    (2): Linear(in_features=512, out_features=64, bias=True)
    (3): ReLU()
    (4): Linear(in_features=64, out_features=7, bias=True)
  )
  (critic): Sequential(
    (0): Linear(in_features=2304, out_features=512, bias=True)
    (1): ReLU()
    (2): Linear(in_features=512, out_features=64, bias=True)
    (3): ReLU()
    (4): Linear(in_features=64, out_features=1, bias=True)
  )
)

Optimizer loaded

discover.py --task-config task1 --discover 1 --algo ppo --env MiniGrid-ConfigWorld-v0-havekey --lr 0.0002 --AnomalyNN test_8 --model 20240725-seed1 --discount 0.99

Namespace(task_config='task1', discover=1, algo='ppo', env='MiniGrid-ConfigWorld-v0-havekey', model='20240725-seed1', seed=1, log_interval=1, save_interval=10, procs=1, frames=10000000, AnomalyNN='test_8', epochs=32, batch_size=128, frames_per_proc=256, discount=0.99, lr=0.0002, gae_lambda=0.95, entropy_coef=0.01, value_loss_coef=0.5, max_grad_norm=0.5, optim_eps=1e-08, optim_alpha=0.99, clip_eps=0.2, recurrence=1, text=False, buffer_size=10000, target_update=10)

Device: cuda

Environments loaded

Training status loaded

Observations preprocessor loaded
Model loaded

ACModel(
  (image_conv): Sequential(
    (0): Conv2d(3, 32, kernel_size=(12, 12), stride=(6, 6))
    (1): ReLU()
    (2): Conv2d(32, 64, kernel_size=(9, 9), stride=(4, 4))
    (3): ReLU()
    (4): Conv2d(64, 128, kernel_size=(3, 3), stride=(2, 2))
    (5): ReLU()
    (6): Conv2d(128, 256, kernel_size=(3, 3), stride=(1, 1))
    (7): ReLU()
  )
  (actor): Sequential(
    (0): Linear(in_features=2304, out_features=512, bias=True)
    (1): ReLU()
    (2): Linear(in_features=512, out_features=64, bias=True)
    (3): ReLU()
    (4): Linear(in_features=64, out_features=7, bias=True)
  )
  (critic): Sequential(
    (0): Linear(in_features=2304, out_features=512, bias=True)
    (1): ReLU()
    (2): Linear(in_features=512, out_features=64, bias=True)
    (3): ReLU()
    (4): Linear(in_features=64, out_features=1, bias=True)
  )
)

Optimizer loaded

discover.py --task-config task1 --discover 1 --algo ppo --env MiniGrid-ConfigWorld-v0-havekey --lr 0.0002 --AnomalyNN test_8 --model 20240725-seed1 --discount 0.99

Namespace(task_config='task1', discover=1, algo='ppo', env='MiniGrid-ConfigWorld-v0-havekey', model='20240725-seed1', seed=1, log_interval=1, save_interval=10, procs=1, frames=10000000, AnomalyNN='test_8', epochs=32, batch_size=128, frames_per_proc=256, discount=0.99, lr=0.0002, gae_lambda=0.95, entropy_coef=0.01, value_loss_coef=0.5, max_grad_norm=0.5, optim_eps=1e-08, optim_alpha=0.99, clip_eps=0.2, recurrence=1, text=False, buffer_size=10000, target_update=10)

Device: cuda

Environments loaded

Training status loaded

Observations preprocessor loaded
Model loaded

ACModel(
  (image_conv): Sequential(
    (0): Conv2d(3, 32, kernel_size=(12, 12), stride=(6, 6))
    (1): ReLU()
    (2): Conv2d(32, 64, kernel_size=(9, 9), stride=(4, 4))
    (3): ReLU()
    (4): Conv2d(64, 128, kernel_size=(3, 3), stride=(2, 2))
    (5): ReLU()
    (6): Conv2d(128, 256, kernel_size=(3, 3), stride=(1, 1))
    (7): ReLU()
  )
  (actor): Sequential(
    (0): Linear(in_features=2304, out_features=512, bias=True)
    (1): ReLU()
    (2): Linear(in_features=512, out_features=64, bias=True)
    (3): ReLU()
    (4): Linear(in_features=64, out_features=7, bias=True)
  )
  (critic): Sequential(
    (0): Linear(in_features=2304, out_features=512, bias=True)
    (1): ReLU()
    (2): Linear(in_features=512, out_features=64, bias=True)
    (3): ReLU()
    (4): Linear(in_features=64, out_features=1, bias=True)
  )
)

Optimizer loaded

discover.py --task-config task1 --discover 1 --algo ppo --env MiniGrid-ConfigWorld-v0-havekey --lr 0.0002 --AnomalyNN test_8 --model 20240725-seed1 --discount 0.99

Namespace(task_config='task1', discover=1, algo='ppo', env='MiniGrid-ConfigWorld-v0-havekey', model='20240725-seed1', seed=1, log_interval=1, save_interval=10, procs=1, frames=10000000, AnomalyNN='test_8', epochs=32, batch_size=128, frames_per_proc=256, discount=0.99, lr=0.0002, gae_lambda=0.95, entropy_coef=0.01, value_loss_coef=0.5, max_grad_norm=0.5, optim_eps=1e-08, optim_alpha=0.99, clip_eps=0.2, recurrence=1, text=False, buffer_size=10000, target_update=10)

Device: cuda

Environments loaded

Training status loaded

Observations preprocessor loaded
Model loaded

ACModel(
  (image_conv): Sequential(
    (0): Conv2d(3, 32, kernel_size=(12, 12), stride=(6, 6))
    (1): ReLU()
    (2): Conv2d(32, 64, kernel_size=(9, 9), stride=(4, 4))
    (3): ReLU()
    (4): Conv2d(64, 128, kernel_size=(3, 3), stride=(2, 2))
    (5): ReLU()
    (6): Conv2d(128, 256, kernel_size=(3, 3), stride=(1, 1))
    (7): ReLU()
  )
  (actor): Sequential(
    (0): Linear(in_features=2304, out_features=512, bias=True)
    (1): ReLU()
    (2): Linear(in_features=512, out_features=64, bias=True)
    (3): ReLU()
    (4): Linear(in_features=64, out_features=7, bias=True)
  )
  (critic): Sequential(
    (0): Linear(in_features=2304, out_features=512, bias=True)
    (1): ReLU()
    (2): Linear(in_features=512, out_features=64, bias=True)
    (3): ReLU()
    (4): Linear(in_features=64, out_features=1, bias=True)
  )
)

Optimizer loaded

discover.py --task-config task1 --discover 1 --algo ppo --env MiniGrid-ConfigWorld-v0-havekey --lr 0.0002 --AnomalyNN test_8 --model 20240725-seed1 --discount 0.99

Namespace(task_config='task1', discover=1, algo='ppo', env='MiniGrid-ConfigWorld-v0-havekey', model='20240725-seed1', seed=1, log_interval=1, save_interval=10, procs=1, frames=10000000, AnomalyNN='test_8', epochs=32, batch_size=128, frames_per_proc=256, discount=0.99, lr=0.0002, gae_lambda=0.95, entropy_coef=0.01, value_loss_coef=0.5, max_grad_norm=0.5, optim_eps=1e-08, optim_alpha=0.99, clip_eps=0.2, recurrence=1, text=False, buffer_size=10000, target_update=10)

Device: cuda

Environments loaded

Training status loaded

Observations preprocessor loaded
Model loaded

ACModel(
  (image_conv): Sequential(
    (0): Conv2d(3, 32, kernel_size=(12, 12), stride=(6, 6))
    (1): ReLU()
    (2): Conv2d(32, 64, kernel_size=(9, 9), stride=(4, 4))
    (3): ReLU()
    (4): Conv2d(64, 128, kernel_size=(3, 3), stride=(2, 2))
    (5): ReLU()
    (6): Conv2d(128, 256, kernel_size=(3, 3), stride=(1, 1))
    (7): ReLU()
  )
  (actor): Sequential(
    (0): Linear(in_features=2304, out_features=512, bias=True)
    (1): ReLU()
    (2): Linear(in_features=512, out_features=64, bias=True)
    (3): ReLU()
    (4): Linear(in_features=64, out_features=7, bias=True)
  )
  (critic): Sequential(
    (0): Linear(in_features=2304, out_features=512, bias=True)
    (1): ReLU()
    (2): Linear(in_features=512, out_features=64, bias=True)
    (3): ReLU()
    (4): Linear(in_features=64, out_features=1, bias=True)
  )
)

Optimizer loaded

discover.py --task-config task1 --discover 1 --algo ppo --env MiniGrid-ConfigWorld-v0-havekey --lr 0.0002 --AnomalyNN test_8 --model 20240725-seed1 --discount 0.99

Namespace(task_config='task1', discover=1, algo='ppo', env='MiniGrid-ConfigWorld-v0-havekey', model='20240725-seed1', seed=1, log_interval=1, save_interval=10, procs=1, frames=10000000, AnomalyNN='test_8', epochs=32, batch_size=128, frames_per_proc=256, discount=0.99, lr=0.0002, gae_lambda=0.95, entropy_coef=0.01, value_loss_coef=0.5, max_grad_norm=0.5, optim_eps=1e-08, optim_alpha=0.99, clip_eps=0.2, recurrence=1, text=False, buffer_size=10000, target_update=10)

Device: cuda

Environments loaded

Training status loaded

Observations preprocessor loaded
Model loaded

ACModel(
  (image_conv): Sequential(
    (0): Conv2d(3, 32, kernel_size=(12, 12), stride=(6, 6))
    (1): ReLU()
    (2): Conv2d(32, 64, kernel_size=(9, 9), stride=(4, 4))
    (3): ReLU()
    (4): Conv2d(64, 128, kernel_size=(3, 3), stride=(2, 2))
    (5): ReLU()
    (6): Conv2d(128, 256, kernel_size=(3, 3), stride=(1, 1))
    (7): ReLU()
  )
  (actor): Sequential(
    (0): Linear(in_features=2304, out_features=512, bias=True)
    (1): ReLU()
    (2): Linear(in_features=512, out_features=64, bias=True)
    (3): ReLU()
    (4): Linear(in_features=64, out_features=7, bias=True)
  )
  (critic): Sequential(
    (0): Linear(in_features=2304, out_features=512, bias=True)
    (1): ReLU()
    (2): Linear(in_features=512, out_features=64, bias=True)
    (3): ReLU()
    (4): Linear(in_features=64, out_features=1, bias=True)
  )
)

Optimizer loaded

discover.py --task-config task1 --discover 1 --algo ppo --env MiniGrid-ConfigWorld-v0-havekey --lr 0.0002 --AnomalyNN test_8 --model 20240725-seed1 --discount 0.99

Namespace(task_config='task1', discover=1, algo='ppo', env='MiniGrid-ConfigWorld-v0-havekey', model='20240725-seed1', seed=1, log_interval=1, save_interval=10, procs=1, frames=10000000, AnomalyNN='test_8', epochs=32, batch_size=128, frames_per_proc=256, discount=0.99, lr=0.0002, gae_lambda=0.95, entropy_coef=0.01, value_loss_coef=0.5, max_grad_norm=0.5, optim_eps=1e-08, optim_alpha=0.99, clip_eps=0.2, recurrence=1, text=False, buffer_size=10000, target_update=10)

Device: cuda

Environments loaded

Training status loaded

Observations preprocessor loaded
Model loaded

ACModel(
  (image_conv): Sequential(
    (0): Conv2d(3, 32, kernel_size=(12, 12), stride=(6, 6))
    (1): ReLU()
    (2): Conv2d(32, 64, kernel_size=(9, 9), stride=(4, 4))
    (3): ReLU()
    (4): Conv2d(64, 128, kernel_size=(3, 3), stride=(2, 2))
    (5): ReLU()
    (6): Conv2d(128, 256, kernel_size=(3, 3), stride=(1, 1))
    (7): ReLU()
  )
  (actor): Sequential(
    (0): Linear(in_features=2304, out_features=512, bias=True)
    (1): ReLU()
    (2): Linear(in_features=512, out_features=64, bias=True)
    (3): ReLU()
    (4): Linear(in_features=64, out_features=7, bias=True)
  )
  (critic): Sequential(
    (0): Linear(in_features=2304, out_features=512, bias=True)
    (1): ReLU()
    (2): Linear(in_features=512, out_features=64, bias=True)
    (3): ReLU()
    (4): Linear(in_features=64, out_features=1, bias=True)
  )
)

Optimizer loaded

U 111 | F 028416 | FPS 0073 | D 3 | Reward:μσmM 3.00 0.00 3.00 3.00 | policy_loss ['None', 'None', '-0.272', 'None'] | value_loss ['None', 'None', '0.042', 'None']
U 112 | F 028672 | FPS 0086 | D 6 | Reward:μσmM 3.00 0.00 3.00 3.00 | policy_loss ['None', 'None', '-0.091', 'None'] | value_loss ['None', 'None', '0.030', 'None']
U 113 | F 028928 | FPS 0088 | D 9 | Reward:μσmM 3.00 0.00 3.00 3.00 | policy_loss ['None', 'None', '0.476', 'None'] | value_loss ['None', 'None', '0.588', 'None']
…
Namespace(task_config='task2', discover=1, algo='ppo', env='MiniGrid-ConfigWorld-v0-havekey', model='20240725-seed1', seed=1, log_interval=1, save_interval=10, procs=1, frames=10000000, AnomalyNN='test_8', epochs=32, batch_size=128, frames_per_proc=256, discount=0.99, lr=0.0002, gae_lambda=0.95, entropy_coef=0.01, value_loss_coef=0.5, max_grad_norm=0.5, optim_eps=1e-08, optim_alpha=0.99, clip_eps=0.2, recurrence=1, text=False, buffer_size=10000, target_update=10)

Device: cuda

Environments loaded

Training status loaded

Observations preprocessor loaded
Model loaded

ACModel(
  (image_conv): Sequential(
    (0): Conv2d(3, 32, kernel_size=(12, 12), stride=(6, 6))
    (1): ReLU()
    (2): Conv2d(32, 64, kernel_size=(9, 9), stride=(4, 4))
    (3): ReLU()
    (4): Conv2d(64, 128, kernel_size=(3, 3), stride=(2, 2))
    (5): ReLU()
    (6): Conv2d(128, 256, kernel_size=(3, 3), stride=(1, 1))
    (7): ReLU()
  )
  (actor): Sequential(
    (0): Linear(in_features=2304, out_features=512, bias=True)
    (1): ReLU()
    (2): Linear(in_features=512, out_features=64, bias=True)
    (3): ReLU()
    (4): Linear(in_features=64, out_features=7, bias=True)
  )
  (critic): Sequential(
    (0): Linear(in_features=2304, out_features=512, bias=True)
    (1): ReLU()
    (2): Linear(in_features=512, out_features=64, bias=True)
    (3): ReLU()
    (4): Linear(in_features=64, out_features=1, bias=True)
  )
)

Optimizer loaded

discover.py --task-config task2 --discover 1 --algo ppo --env MiniGrid-ConfigWorld-v0-havekey --lr 0.0002 --AnomalyNN test_8 --model 20240725-seed1 --discount 0.99

Namespace(task_config='task2', discover=1, algo='ppo', env='MiniGrid-ConfigWorld-v0-havekey', model='20240725-seed1', seed=1, log_interval=1, save_interval=10, procs=1, frames=10000000, AnomalyNN='test_8', epochs=32, batch_size=128, frames_per_proc=256, discount=0.99, lr=0.0002, gae_lambda=0.95, entropy_coef=0.01, value_loss_coef=0.5, max_grad_norm=0.5, optim_eps=1e-08, optim_alpha=0.99, clip_eps=0.2, recurrence=1, text=False, buffer_size=10000, target_update=10)

Device: cuda

Environments loaded

Training status loaded

Observations preprocessor loaded
Model loaded

ACModel(
  (image_conv): Sequential(
    (0): Conv2d(3, 32, kernel_size=(12, 12), stride=(6, 6))
    (1): ReLU()
    (2): Conv2d(32, 64, kernel_size=(9, 9), stride=(4, 4))
    (3): ReLU()
    (4): Conv2d(64, 128, kernel_size=(3, 3), stride=(2, 2))
    (5): ReLU()
    (6): Conv2d(128, 256, kernel_size=(3, 3), stride=(1, 1))
    (7): ReLU()
  )
  (actor): Sequential(
    (0): Linear(in_features=2304, out_features=512, bias=True)
    (1): ReLU()
    (2): Linear(in_features=512, out_features=64, bias=True)
    (3): ReLU()
    (4): Linear(in_features=64, out_features=7, bias=True)
  )
  (critic): Sequential(
    (0): Linear(in_features=2304, out_features=512, bias=True)
    (1): ReLU()
    (2): Linear(in_features=512, out_features=64, bias=True)
    (3): ReLU()
    (4): Linear(in_features=64, out_features=1, bias=True)
  )
)

Optimizer loaded

discover.py --task-config task2 --discover 1 --algo ppo --env MiniGrid-ConfigWorld-v0-havekey --lr 0.0002 --AnomalyNN test_8 --model 20240725-seed1 --discount 0.99

Namespace(task_config='task2', discover=1, algo='ppo', env='MiniGrid-ConfigWorld-v0-havekey', model='20240725-seed1', seed=1, log_interval=1, save_interval=10, procs=1, frames=10000000, AnomalyNN='test_8', epochs=32, batch_size=128, frames_per_proc=256, discount=0.99, lr=0.0002, gae_lambda=0.95, entropy_coef=0.01, value_loss_coef=0.5, max_grad_norm=0.5, optim_eps=1e-08, optim_alpha=0.99, clip_eps=0.2, recurrence=1, text=False, buffer_size=10000, target_update=10)

Device: cuda

Environments loaded

Training status loaded

Observations preprocessor loaded
Model loaded

ACModel(
  (image_conv): Sequential(
    (0): Conv2d(3, 32, kernel_size=(12, 12), stride=(6, 6))
    (1): ReLU()
    (2): Conv2d(32, 64, kernel_size=(9, 9), stride=(4, 4))
    (3): ReLU()
    (4): Conv2d(64, 128, kernel_size=(3, 3), stride=(2, 2))
    (5): ReLU()
    (6): Conv2d(128, 256, kernel_size=(3, 3), stride=(1, 1))
    (7): ReLU()
  )
  (actor): Sequential(
    (0): Linear(in_features=2304, out_features=512, bias=True)
    (1): ReLU()
    (2): Linear(in_features=512, out_features=64, bias=True)
    (3): ReLU()
    (4): Linear(in_features=64, out_features=7, bias=True)
  )
  (critic): Sequential(
    (0): Linear(in_features=2304, out_features=512, bias=True)
    (1): ReLU()
    (2): Linear(in_features=512, out_features=64, bias=True)
    (3): ReLU()
    (4): Linear(in_features=64, out_features=1, bias=True)
  )
)

Optimizer loaded

discover.py --task-config task1 --discover 1 --algo ppo --env MiniGrid-ConfigWorld-v0-havekey --lr 0.0002 --AnomalyNN test_8 --model 20240725-seed1 --discount 0.99

Namespace(task_config='task1', discover=1, algo='ppo', env='MiniGrid-ConfigWorld-v0-havekey', model='20240725-seed1', seed=1, log_interval=1, save_interval=10, procs=1, frames=10000000, AnomalyNN='test_8', epochs=32, batch_size=128, frames_per_proc=256, discount=0.99, lr=0.0002, gae_lambda=0.95, entropy_coef=0.01, value_loss_coef=0.5, max_grad_norm=0.5, optim_eps=1e-08, optim_alpha=0.99, clip_eps=0.2, recurrence=1, text=False, buffer_size=10000, target_update=10)

Device: cuda

Environments loaded

Training status loaded

Observations preprocessor loaded
Model loaded

ACModel(
  (image_conv): Sequential(
    (0): Conv2d(3, 32, kernel_size=(12, 12), stride=(6, 6))
    (1): ReLU()
    (2): Conv2d(32, 64, kernel_size=(9, 9), stride=(4, 4))
    (3): ReLU()
    (4): Conv2d(64, 128, kernel_size=(3, 3), stride=(2, 2))
    (5): ReLU()
    (6): Conv2d(128, 256, kernel_size=(3, 3), stride=(1, 1))
    (7): ReLU()
  )
  (actor): Sequential(
    (0): Linear(in_features=2304, out_features=512, bias=True)
    (1): ReLU()
    (2): Linear(in_features=512, out_features=64, bias=True)
    (3): ReLU()
    (4): Linear(in_features=64, out_features=7, bias=True)
  )
  (critic): Sequential(
    (0): Linear(in_features=2304, out_features=512, bias=True)
    (1): ReLU()
    (2): Linear(in_features=512, out_features=64, bias=True)
    (3): ReLU()
    (4): Linear(in_features=64, out_features=1, bias=True)
  )
)

Optimizer loaded

discover.py --task-config task2 --discover 0 --algo ppo --env MiniGrid-ConfigWorld-v0-havekey --lr 0.00025 --AnomalyNN test_8 --model 20240725-seed1 --discount 0.99

Namespace(task_config='task2', discover=0, algo='ppo', env='MiniGrid-ConfigWorld-v0-havekey', model='20240725-seed1', seed=1, log_interval=1, save_interval=10, procs=1, frames=10000000, AnomalyNN='test_8', epochs=32, batch_size=128, frames_per_proc=256, discount=0.99, lr=0.00025, gae_lambda=0.95, entropy_coef=0.01, value_loss_coef=0.5, max_grad_norm=0.5, optim_eps=1e-08, optim_alpha=0.99, clip_eps=0.2, recurrence=1, text=False, buffer_size=10000, target_update=10)

Device: cuda

Environments loaded

Training status loaded

Observations preprocessor loaded
Model loaded

ACModel(
  (image_conv): Sequential(
    (0): Conv2d(3, 32, kernel_size=(12, 12), stride=(6, 6))
    (1): ReLU()
    (2): Conv2d(32, 64, kernel_size=(9, 9), stride=(4, 4))
    (3): ReLU()
    (4): Conv2d(64, 128, kernel_size=(3, 3), stride=(2, 2))
    (5): ReLU()
    (6): Conv2d(128, 256, kernel_size=(3, 3), stride=(1, 1))
    (7): ReLU()
  )
  (actor): Sequential(
    (0): Linear(in_features=2304, out_features=512, bias=True)
    (1): ReLU()
    (2): Linear(in_features=512, out_features=64, bias=True)
    (3): ReLU()
    (4): Linear(in_features=64, out_features=7, bias=True)
  )
  (critic): Sequential(
    (0): Linear(in_features=2304, out_features=512, bias=True)
    (1): ReLU()
    (2): Linear(in_features=512, out_features=64, bias=True)
    (3): ReLU()
    (4): Linear(in_features=64, out_features=1, bias=True)
  )
)

Optimizer loaded

discover.py --task-config task1 --discover 1 --algo ppo --env MiniGrid-ConfigWorld-v0-havekey --lr 0.0002 --AnomalyNN test_8 --model 20240725-seed1 --discount 0.99

Namespace(task_config='task1', discover=1, algo='ppo', env='MiniGrid-ConfigWorld-v0-havekey', model='20240725-seed1', seed=1, log_interval=1, save_interval=10, procs=1, frames=10000000, AnomalyNN='test_8', epochs=32, batch_size=128, frames_per_proc=256, discount=0.99, lr=0.0002, gae_lambda=0.95, entropy_coef=0.01, value_loss_coef=0.5, max_grad_norm=0.5, optim_eps=1e-08, optim_alpha=0.99, clip_eps=0.2, recurrence=1, text=False, buffer_size=10000, target_update=10)

Device: cuda

Environments loaded

Training status loaded

Observations preprocessor loaded
Model loaded

ACModel(
  (image_conv): Sequential(
    (0): Conv2d(3, 32, kernel_size=(12, 12), stride=(6, 6))
    (1): ReLU()
    (2): Conv2d(32, 64, kernel_size=(9, 9), stride=(4, 4))
    (3): ReLU()
    (4): Conv2d(64, 128, kernel_size=(3, 3), stride=(2, 2))
    (5): ReLU()
    (6): Conv2d(128, 256, kernel_size=(3, 3), stride=(1, 1))
    (7): ReLU()
  )
  (actor): Sequential(
    (0): Linear(in_features=2304, out_features=512, bias=True)
    (1): ReLU()
    (2): Linear(in_features=512, out_features=64, bias=True)
    (3): ReLU()
    (4): Linear(in_features=64, out_features=7, bias=True)
  )
  (critic): Sequential(
    (0): Linear(in_features=2304, out_features=512, bias=True)
    (1): ReLU()
    (2): Linear(in_features=512, out_features=64, bias=True)
    (3): ReLU()
    (4): Linear(in_features=64, out_features=1, bias=True)
  )
)

Optimizer loaded

U 621 | F 158976 | FPS 0045 | D 5 | Reward:μσmM -0.88 0.33 -1.00 0.00 | policy_loss ['None', 'None', 'None', '0.049'] | value_loss ['None', 'None', 'None', '0.015']
U 622 | F 159232 | FPS 0054 | D 10 | Reward:μσmM -0.80 0.40 -1.00 0.00 | policy_loss ['None', 'None', 'None', '-0.022'] | value_loss ['None', 'None', 'None', '0.008']
U 623 | F 159488 | FPS 0055 | D 15 | Reward:μσmM -0.83 0.37 -1.00 0.00 | policy_loss ['None', 'None', 'None', '0.009'] | value_loss ['None', 'None', 'None', '0.012']
…
