…
/home/v-wangzl/local_code/RLABL/scripts/train.py --algo ppo --env MiniGrid-ConfigWorld-v0 --model PPO_10M --save-interval 10 --frames 10000000

Namespace(algo='ppo', env='MiniGrid-ConfigWorld-v0', model='PPO_10M', seed=1, log_interval=1, save_interval=10, procs=16, frames=10000000, epochs=4, batch_size=256, frames_per_proc=None, discount=0.99, lr=0.001, gae_lambda=0.95, entropy_coef=0.01, value_loss_coef=0.5, max_grad_norm=0.5, optim_eps=1e-08, optim_alpha=0.99, clip_eps=0.2, recurrence=1, text=False, mem=False)

Device: cuda

Environments loaded

Training status loaded

Observations preprocessor loaded
Model loaded

ACModel(
  (image_conv): Sequential(
    (0): Conv2d(3, 32, kernel_size=(12, 12), stride=(6, 6))
    (1): ReLU()
    (2): Conv2d(32, 64, kernel_size=(9, 9), stride=(4, 4))
    (3): ReLU()
    (4): Conv2d(64, 128, kernel_size=(3, 3), stride=(2, 2))
    (5): ReLU()
    (6): Conv2d(128, 256, kernel_size=(3, 3), stride=(1, 1))
    (7): ReLU()
  )
  (actor): Sequential(
    (0): Linear(in_features=2304, out_features=512, bias=True)
    (1): Tanh()
    (2): Linear(in_features=512, out_features=64, bias=True)
    (3): Tanh()
    (4): Linear(in_features=64, out_features=7, bias=True)
  )
  (critic): Sequential(
    (0): Linear(in_features=2304, out_features=512, bias=True)
    (1): Tanh()
    (2): Linear(in_features=512, out_features=64, bias=True)
    (3): Tanh()
    (4): Linear(in_features=64, out_features=1, bias=True)
  )
)

Optimizer loaded

U 1 | F 002048 | FPS 0205 | D 10 | Reward:μσmM -0.53 0.82 -1.00 0.94 |  entropy 1.713 | value -0.030 | policy_loss 0.111 | value_loss 0.118 | grad_norm 0.466
U 2 | F 004096 | FPS 0283 | D 17 | Reward:μσmM -0.64 0.73 -1.00 0.98 |  entropy 1.703 | value -0.201 | policy_loss 0.118 | value_loss 0.149 | grad_norm 0.285
U 3 | F 006144 | FPS 0373 | D 22 | Reward:μσmM -0.63 0.74 -1.00 0.96 |  entropy 1.709 | value -0.248 | policy_loss 0.051 | value_loss 0.104 | grad_norm 0.217
…
