…
env MiniGrid-ConfigWorld-v0 --model Model1 --save-interval 10 --frames 100000

Namespace(algo='ppo', env='MiniGrid-ConfigWorld-v0', model='Model1', seed=1, log_interval=1, save_interval=10, procs=16, frames=100000, epochs=4, batch_size=256, frames_per_proc=None, discount=0.99, lr=0.001, gae_lambda=0.95, entropy_coef=0.01, value_loss_coef=0.5, max_grad_norm=0.5, optim_eps=1e-08, optim_alpha=0.99, clip_eps=0.2, recurrence=1, text=False, mem=False)

Device: cuda

Environments loaded

Training status loaded

Observations preprocessor loaded
Model loaded

ACModel(
  (image_conv): Sequential(
    (0): Conv2d(3, 32, kernel_size=(12, 12), stride=(6, 6))
    (1): ReLU()
    (2): Conv2d(32, 64, kernel_size=(9, 9), stride=(4, 4))
    (3): ReLU()
    (4): Conv2d(64, 128, kernel_size=(3, 3), stride=(2, 2))
    (5): ReLU()
    (6): Conv2d(128, 256, kernel_size=(3, 3), stride=(1, 1))
    (7): ReLU()
  )
  (actor): Sequential(
    (0): Linear(in_features=2304, out_features=512, bias=True)
    (1): Tanh()
    (2): Linear(in_features=512, out_features=64, bias=True)
    (3): Tanh()
    (4): Linear(in_features=64, out_features=7, bias=True)
  )
  (critic): Sequential(
    (0): Linear(in_features=2304, out_features=512, bias=True)
    (1): Tanh()
    (2): Linear(in_features=512, out_features=64, bias=True)
    (3): Tanh()
    (4): Linear(in_features=64, out_features=1, bias=True)
  )
)

Optimizer loaded

train.py --algo ppo --env MiniGrid-ConfigWorld-v0 --model Model1 --save-interval 10 --frames 100000

Namespace(algo='ppo', env='MiniGrid-ConfigWorld-v0', model='Model1', seed=1, log_interval=1, save_interval=10, procs=16, frames=100000, epochs=4, batch_size=256, frames_per_proc=None, discount=0.99, lr=0.001, gae_lambda=0.95, entropy_coef=0.01, value_loss_coef=0.5, max_grad_norm=0.5, optim_eps=1e-08, optim_alpha=0.99, clip_eps=0.2, recurrence=1, text=False, mem=False)

Device: cuda

Environments loaded

Training status loaded

Observations preprocessor loaded
Model loaded

ACModel(
  (image_conv): Sequential(
    (0): Conv2d(3, 32, kernel_size=(12, 12), stride=(6, 6))
    (1): ReLU()
    (2): Conv2d(32, 64, kernel_size=(9, 9), stride=(4, 4))
    (3): ReLU()
    (4): Conv2d(64, 128, kernel_size=(3, 3), stride=(2, 2))
    (5): ReLU()
    (6): Conv2d(128, 256, kernel_size=(3, 3), stride=(1, 1))
    (7): ReLU()
  )
  (actor): Sequential(
    (0): Linear(in_features=2304, out_features=512, bias=True)
    (1): Tanh()
    (2): Linear(in_features=512, out_features=64, bias=True)
    (3): Tanh()
    (4): Linear(in_features=64, out_features=7, bias=True)
  )
  (critic): Sequential(
    (0): Linear(in_features=2304, out_features=512, bias=True)
    (1): Tanh()
    (2): Linear(in_features=512, out_features=64, bias=True)
    (3): Tanh()
    (4): Linear(in_features=64, out_features=1, bias=True)
  )
)

Optimizer loaded

U 1 | F 002048 | FPS 0220 | D 9 | Reward:米考mM -1.00 0.00 -1.00 -1.00 |  entropy 1.650 | value -0.122 | policy_loss 0.213 | value_loss 0.090 | grad_norm 0.801
U 2 | F 004096 | FPS 0754 | D 12 | Reward:米考mM -0.69 0.46 -1.00 0.00 |  entropy 1.682 | value -0.198 | policy_loss -0.010 | value_loss 0.015 | grad_norm 0.081
U 3 | F 006144 | FPS 0776 | D 14 | Reward:米考mM -0.25 0.43 -1.00 0.00 |  entropy 1.753 | value -0.162 | policy_loss -0.033 | value_loss 0.004 | grad_norm 0.060
train.py --algo ppo --env MiniGrid-ConfigWorld-v0 --model Model1 --save-interval 10 --frames 100000

Namespace(algo='ppo', env='MiniGrid-ConfigWorld-v0', model='Model1', seed=1, log_interval=1, save_interval=10, procs=16, frames=100000, epochs=4, batch_size=256, frames_per_proc=None, discount=0.99, lr=0.001, gae_lambda=0.95, entropy_coef=0.01, value_loss_coef=0.5, max_grad_norm=0.5, optim_eps=1e-08, optim_alpha=0.99, clip_eps=0.2, recurrence=1, text=False, mem=False)

Device: cuda

Environments loaded

Training status loaded

Observations preprocessor loaded
Model loaded

ACModel(
  (image_conv): Sequential(
    (0): Conv2d(3, 32, kernel_size=(12, 12), stride=(6, 6))
    (1): ReLU()
    (2): Conv2d(32, 64, kernel_size=(9, 9), stride=(4, 4))
    (3): ReLU()
    (4): Conv2d(64, 128, kernel_size=(3, 3), stride=(2, 2))
    (5): ReLU()
    (6): Conv2d(128, 256, kernel_size=(3, 3), stride=(1, 1))
    (7): ReLU()
  )
  (actor): Sequential(
    (0): Linear(in_features=2304, out_features=512, bias=True)
    (1): Tanh()
    (2): Linear(in_features=512, out_features=64, bias=True)
    (3): Tanh()
    (4): Linear(in_features=64, out_features=7, bias=True)
  )
  (critic): Sequential(
    (0): Linear(in_features=2304, out_features=512, bias=True)
    (1): Tanh()
    (2): Linear(in_features=512, out_features=64, bias=True)
    (3): Tanh()
    (4): Linear(in_features=64, out_features=1, bias=True)
  )
)

Optimizer loaded

U 1 | F 002048 | FPS 0203 | D 10 | Reward:米考mM -1.00 0.00 -1.00 -1.00 |  entropy 1.650 | value -0.122 | policy_loss 0.213 | value_loss 0.090 | grad_norm 0.801
U 2 | F 004096 | FPS 0774 | D 12 | Reward:米考mM -0.69 0.46 -1.00 0.00 |  entropy 1.682 | value -0.198 | policy_loss -0.010 | value_loss 0.015 | grad_norm 0.081
U 3 | F 006144 | FPS 0783 | D 15 | Reward:米考mM -0.25 0.43 -1.00 0.00 |  entropy 1.753 | value -0.162 | policy_loss -0.033 | value_loss 0.004 | grad_norm 0.060
…
train.py --algo ppo --env MiniGrid-ConfigWorld-v0 --model Model1 --save-interval 10 --frames 100000

Namespace(algo='ppo', env='MiniGrid-ConfigWorld-v0', model='Model1', seed=1, log_interval=1, save_interval=10, procs=16, frames=100000, epochs=4, batch_size=256, frames_per_proc=None, discount=0.99, lr=0.001, gae_lambda=0.95, entropy_coef=0.01, value_loss_coef=0.5, max_grad_norm=0.5, optim_eps=1e-08, optim_alpha=0.99, clip_eps=0.2, recurrence=1, text=False, mem=False)

Device: cuda

Environments loaded

Training status loaded

Observations preprocessor loaded
Model loaded

ACModel(
  (image_conv): Sequential(
    (0): Conv2d(3, 32, kernel_size=(12, 12), stride=(6, 6))
    (1): ReLU()
    (2): Conv2d(32, 64, kernel_size=(9, 9), stride=(4, 4))
    (3): ReLU()
    (4): Conv2d(64, 128, kernel_size=(3, 3), stride=(2, 2))
    (5): ReLU()
    (6): Conv2d(128, 256, kernel_size=(3, 3), stride=(1, 1))
    (7): ReLU()
  )
  (actor): Sequential(
    (0): Linear(in_features=2304, out_features=512, bias=True)
    (1): Tanh()
    (2): Linear(in_features=512, out_features=64, bias=True)
    (3): Tanh()
    (4): Linear(in_features=64, out_features=7, bias=True)
  )
  (critic): Sequential(
    (0): Linear(in_features=2304, out_features=512, bias=True)
    (1): Tanh()
    (2): Linear(in_features=512, out_features=64, bias=True)
    (3): Tanh()
    (4): Linear(in_features=64, out_features=1, bias=True)
  )
)

Optimizer loaded

U 41 | F 083968 | FPS 0304 | D 6 | Reward:米考mM 0.00 0.00 0.00 0.00 |  entropy 1.792 | value -0.008 | policy_loss -0.001 | value_loss 0.000 | grad_norm 0.004
train.py --algo ppo --env MiniGrid-ConfigWorld-v0 --model Model1 --save-interval 10 --frames 100000

Namespace(algo='ppo', env='MiniGrid-ConfigWorld-v0', model='Model1', seed=1, log_interval=1, save_interval=10, procs=16, frames=100000, epochs=4, batch_size=256, frames_per_proc=None, discount=0.99, lr=0.001, gae_lambda=0.95, entropy_coef=0.01, value_loss_coef=0.5, max_grad_norm=0.5, optim_eps=1e-08, optim_alpha=0.99, clip_eps=0.2, recurrence=1, text=False, mem=False)

Device: cuda

Environments loaded

Training status loaded

Observations preprocessor loaded
Model loaded

ACModel(
  (image_conv): Sequential(
    (0): Conv2d(3, 32, kernel_size=(12, 12), stride=(6, 6))
    (1): ReLU()
    (2): Conv2d(32, 64, kernel_size=(9, 9), stride=(4, 4))
    (3): ReLU()
    (4): Conv2d(64, 128, kernel_size=(3, 3), stride=(2, 2))
    (5): ReLU()
    (6): Conv2d(128, 256, kernel_size=(3, 3), stride=(1, 1))
    (7): ReLU()
  )
  (actor): Sequential(
    (0): Linear(in_features=2304, out_features=512, bias=True)
    (1): Tanh()
    (2): Linear(in_features=512, out_features=64, bias=True)
    (3): Tanh()
    (4): Linear(in_features=64, out_features=7, bias=True)
  )
  (critic): Sequential(
    (0): Linear(in_features=2304, out_features=512, bias=True)
    (1): Tanh()
    (2): Linear(in_features=512, out_features=64, bias=True)
    (3): Tanh()
    (4): Linear(in_features=64, out_features=1, bias=True)
  )
)

Optimizer loaded

train.py --algo ppo --env MiniGrid-ConfigWorld-v0 --model Model1 --save-interval 10 --frames 100000

Namespace(algo='ppo', env='MiniGrid-ConfigWorld-v0', model='Model1', seed=1, log_interval=1, save_interval=10, procs=16, frames=100000, epochs=4, batch_size=256, frames_per_proc=None, discount=0.99, lr=0.001, gae_lambda=0.95, entropy_coef=0.01, value_loss_coef=0.5, max_grad_norm=0.5, optim_eps=1e-08, optim_alpha=0.99, clip_eps=0.2, recurrence=1, text=False, mem=False)

Device: cuda

Environments loaded

Training status loaded

Observations preprocessor loaded
Model loaded

ACModel(
  (image_conv): Sequential(
    (0): Conv2d(3, 32, kernel_size=(12, 12), stride=(6, 6))
    (1): ReLU()
    (2): Conv2d(32, 64, kernel_size=(9, 9), stride=(4, 4))
    (3): ReLU()
    (4): Conv2d(64, 128, kernel_size=(3, 3), stride=(2, 2))
    (5): ReLU()
    (6): Conv2d(128, 256, kernel_size=(3, 3), stride=(1, 1))
    (7): ReLU()
  )
  (actor): Sequential(
    (0): Linear(in_features=2304, out_features=512, bias=True)
    (1): Tanh()
    (2): Linear(in_features=512, out_features=64, bias=True)
    (3): Tanh()
    (4): Linear(in_features=64, out_features=7, bias=True)
  )
  (critic): Sequential(
    (0): Linear(in_features=2304, out_features=512, bias=True)
    (1): Tanh()
    (2): Linear(in_features=512, out_features=64, bias=True)
    (3): Tanh()
    (4): Linear(in_features=64, out_features=1, bias=True)
  )
)

Optimizer loaded

U 41 | F 083968 | FPS 0294 | D 6 | Reward:米考mM 0.00 0.00 0.00 0.00 |  entropy 1.792 | value -0.008 | policy_loss -0.001 | value_loss 0.000 | grad_norm 0.004
U 42 | F 086016 | FPS 0791 | D 9 | Reward:米考mM 0.00 0.00 0.00 0.00 |  entropy 1.792 | value -0.007 | policy_loss -0.001 | value_loss 0.000 | grad_norm 0.002
U 43 | F 088064 | FPS 0746 | D 12 | Reward:米考mM 0.00 0.00 0.00 0.00 |  entropy 1.792 | value -0.005 | policy_loss -0.002 | value_loss 0.000 | grad_norm 0.003
…
