…
rain.py --algo ppo --env MiniGrid-ConfigWorld-v0 --model 12 --save-interval 10 --frames 600000

Namespace(algo='ppo', env='MiniGrid-ConfigWorld-v0', model='12', seed=1, log_interval=1, save_interval=10, procs=1, frames=600000, epochs=4, batch_size=256, frames_per_proc=256, discount=0.99, lr=0.001, gae_lambda=0.95, entropy_coef=0.01, value_loss_coef=0.5, max_grad_norm=0.5, optim_eps=1e-08, optim_alpha=0.99, clip_eps=0.2, recurrence=1, text=False)

Device: cuda

Environments loaded

Training status loaded

Observations preprocessor loaded
Model loaded

ACModel(
  (image_conv): Sequential(
    (0): Conv2d(3, 32, kernel_size=(12, 12), stride=(6, 6))
    (1): ReLU()
    (2): Conv2d(32, 64, kernel_size=(9, 9), stride=(4, 4))
    (3): ReLU()
    (4): Conv2d(64, 128, kernel_size=(3, 3), stride=(2, 2))
    (5): ReLU()
    (6): Conv2d(128, 256, kernel_size=(3, 3), stride=(1, 1))
    (7): ReLU()
  )
  (actor): Sequential(
    (0): Linear(in_features=2304, out_features=512, bias=True)
    (1): Tanh()
    (2): Linear(in_features=512, out_features=64, bias=True)
    (3): Tanh()
    (4): Linear(in_features=64, out_features=7, bias=True)
  )
  (critic): Sequential(
    (0): Linear(in_features=2304, out_features=512, bias=True)
    (1): Tanh()
    (2): Linear(in_features=512, out_features=64, bias=True)
    (3): Tanh()
    (4): Linear(in_features=64, out_features=1, bias=True)
  )
)

Optimizer loaded

Optimizer loaded

Optimizer loaded

U 1 | F 000256 | FPS 0078 | D 3 | Reward:米考mM 0.79 2.43 -1.00 5.00 | policy_loss ['0.336', '0.342', '0.357'] | value_loss ['3.634', '4.331', '6.543'] 
U 2 | F 000512 | FPS 0187 | D 4 | Reward:米考mM 0.67 1.70 -1.00 3.00 | policy_loss ['-0.600', '-0.408', 'None'] | value_loss ['0.118', '0.231', 'None'] 
…
